{"keras_version": "2.1.2", "backend": "tensorflow", "config": {"name": "model_1", "layers": [{"name": "input_1", "config": {"sparse": false, "name": "input_1", "batch_input_shape": [null, 299, 299, 3], "dtype": "float32"}, "class_name": "InputLayer", "inbound_nodes": []}, {"name": "conv2d_1", "config": {"kernel_regularizer": null, "kernel_initializer": {"config": {"seed": null, "distribution": "uniform", "scale": 1.0, "mode": "fan_avg"}, "class_name": "VarianceScaling"}, "strides": [2, 2], "bias_regularizer": null, "filters": 32, "bias_initializer": {"config": {}, "class_name": "Zeros"}, "use_bias": false, "activation": "linear", "kernel_constraint": null, "name": "conv2d_1", "data_format": "channels_last", "trainable": false, "bias_constraint": null, "activity_regularizer": null, "padding": "valid", "kernel_size": [3, 3], "dilation_rate": [1, 1]}, "class_name": "Conv2D", "inbound_nodes": [[["input_1", 0, 0, {}]]]}, {"name": "batch_normalization_1", "config": {"beta_regularizer": null, "gamma_regularizer": null, "center": true, "scale": false, "gamma_constraint": null, "epsilon": 0.001, "axis": 3, "beta_constraint": null, "moving_mean_initializer": {"config": {}, "class_name": "Zeros"}, "name": "batch_normalization_1", "trainable": false, "moving_variance_initializer": {"config": {}, "class_name": "Ones"}, "momentum": 0.99, "gamma_initializer": {"config": {}, "class_name": "Ones"}, "beta_initializer": {"config": {}, "class_name": "Zeros"}}, "class_name": "BatchNormalization", "inbound_nodes": [[["conv2d_1", 0, 0, {}]]]}, {"name": "activation_1", "config": {"name": "activation_1", "activation": "relu", "trainable": false}, "class_name": "Activation", "inbound_nodes": [[["batch_normalization_1", 0, 0, {}]]]}, {"name": "conv2d_2", "config": {"kernel_regularizer": null, "kernel_initializer": {"config": {"seed": null, "distribution": "uniform", "scale": 1.0, "mode": "fan_avg"}, "class_name": "VarianceScaling"}, "strides": [1, 1], "bias_regularizer": null, "filters": 32, "bias_initializer": {"config": {}, "class_name": "Zeros"}, "use_bias": false, "activation": "linear", "kernel_constraint": null, "name": "conv2d_2", "data_format": "channels_last", "trainable": false, "bias_constraint": null, "activity_regularizer": null, "padding": "valid", "kernel_size": [3, 3], "dilation_rate": [1, 1]}, "class_name": "Conv2D", "inbound_nodes": [[["activation_1", 0, 0, {}]]]}, {"name": "batch_normalization_2", "config": {"beta_regularizer": null, "gamma_regularizer": null, "center": true, "scale": false, "gamma_constraint": null, "epsilon": 0.001, "axis": 3, "beta_constraint": null, "moving_mean_initializer": {"config": {}, "class_name": "Zeros"}, "name": "batch_normalization_2", "trainable": false, "moving_variance_initializer": {"config": {}, "class_name": "Ones"}, "momentum": 0.99, "gamma_initializer": {"config": {}, "class_name": "Ones"}, "beta_initializer": {"config": {}, "class_name": "Zeros"}}, "class_name": "BatchNormalization", "inbound_nodes": [[["conv2d_2", 0, 0, {}]]]}, {"name": "activation_2", "config": {"name": "activation_2", "activation": "relu", "trainable": false}, "class_name": "Activation", "inbound_nodes": [[["batch_normalization_2", 0, 0, {}]]]}, {"name": "conv2d_3", "config": {"kernel_regularizer": null, "kernel_initializer": {"config": {"seed": null, "distribution": "uniform", "scale": 1.0, "mode": "fan_avg"}, "class_name": "VarianceScaling"}, "strides": [1, 1], "bias_regularizer": null, "filters": 64, "bias_initializer": {"config": {}, "class_name": "Zeros"}, "use_bias": false, "activation": "linear", "kernel_constraint": null, "name": "conv2d_3", "data_format": "channels_last", "trainable": false, "bias_constraint": null, "activity_regularizer": null, "padding": "same", "kernel_size": [3, 3], "dilation_rate": [1, 1]}, "class_name": "Conv2D", "inbound_nodes": [[["activation_2", 0, 0, {}]]]}, {"name": "batch_normalization_3", "config": {"beta_regularizer": null, "gamma_regularizer": null, "center": true, "scale": false, "gamma_constraint": null, "epsilon": 0.001, "axis": 3, "beta_constraint": null, "moving_mean_initializer": {"config": {}, "class_name": "Zeros"}, "name": "batch_normalization_3", "trainable": false, "moving_variance_initializer": {"config": {}, "class_name": "Ones"}, "momentum": 0.99, "gamma_initializer": {"config": {}, "class_name": "Ones"}, "beta_initializer": {"config": {}, "class_name": "Zeros"}}, "class_name": "BatchNormalization", "inbound_nodes": [[["conv2d_3", 0, 0, {}]]]}, {"name": "activation_3", "config": {"name": "activation_3", "activation": "relu", "trainable": false}, "class_name": "Activation", "inbound_nodes": [[["batch_normalization_3", 0, 0, {}]]]}, {"name": "max_pooling2d_1", "config": {"name": "max_pooling2d_1", "data_format": "channels_last", "strides": [2, 2], "trainable": false, "pool_size": [3, 3], "padding": "valid"}, "class_name": "MaxPooling2D", "inbound_nodes": [[["activation_3", 0, 0, {}]]]}, {"name": "conv2d_4", "config": {"kernel_regularizer": null, "kernel_initializer": {"config": {"seed": null, "distribution": "uniform", "scale": 1.0, "mode": "fan_avg"}, "class_name": "VarianceScaling"}, "strides": [1, 1], "bias_regularizer": null, "filters": 80, "bias_initializer": {"config": {}, "class_name": "Zeros"}, "use_bias": false, "activation": "linear", "kernel_constraint": null, "name": "conv2d_4", "data_format": "channels_last", "trainable": false, "bias_constraint": null, "activity_regularizer": null, "padding": "valid", "kernel_size": [1, 1], "dilation_rate": [1, 1]}, "class_name": "Conv2D", "inbound_nodes": [[["max_pooling2d_1", 0, 0, {}]]]}, {"name": "batch_normalization_4", "config": {"beta_regularizer": null, "gamma_regularizer": null, "center": true, "scale": false, "gamma_constraint": null, "epsilon": 0.001, "axis": 3, "beta_constraint": null, "moving_mean_initializer": {"config": {}, "class_name": "Zeros"}, "name": "batch_normalization_4", "trainable": false, "moving_variance_initializer": {"config": {}, "class_name": "Ones"}, "momentum": 0.99, "gamma_initializer": {"config": {}, "class_name": "Ones"}, "beta_initializer": {"config": {}, "class_name": "Zeros"}}, "class_name": "BatchNormalization", "inbound_nodes": [[["conv2d_4", 0, 0, {}]]]}, {"name": "activation_4", "config": {"name": "activation_4", "activation": "relu", "trainable": false}, "class_name": "Activation", "inbound_nodes": [[["batch_normalization_4", 0, 0, {}]]]}, {"name": "conv2d_5", "config": {"kernel_regularizer": null, "kernel_initializer": {"config": {"seed": null, "distribution": "uniform", "scale": 1.0, "mode": "fan_avg"}, "class_name": "VarianceScaling"}, "strides": [1, 1], "bias_regularizer": null, "filters": 192, "bias_initializer": {"config": {}, "class_name": "Zeros"}, "use_bias": false, "activation": "linear", "kernel_constraint": null, "name": "conv2d_5", "data_format": "channels_last", "trainable": false, "bias_constraint": null, "activity_regularizer": null, "padding": "valid", "kernel_size": [3, 3], "dilation_rate": [1, 1]}, "class_name": "Conv2D", "inbound_nodes": [[["activation_4", 0, 0, {}]]]}, {"name": "batch_normalization_5", "config": {"beta_regularizer": null, "gamma_regularizer": null, "center": true, "scale": false, "gamma_constraint": null, "epsilon": 0.001, "axis": 3, "beta_constraint": null, "moving_mean_initializer": {"config": {}, "class_name": "Zeros"}, "name": "batch_normalization_5", "trainable": false, "moving_variance_initializer": {"config": {}, "class_name": "Ones"}, "momentum": 0.99, "gamma_initializer": {"config": {}, "class_name": "Ones"}, "beta_initializer": {"config": {}, "class_name": "Zeros"}}, "class_name": "BatchNormalization", "inbound_nodes": [[["conv2d_5", 0, 0, {}]]]}, {"name": "activation_5", "config": {"name": "activation_5", "activation": "relu", "trainable": false}, "class_name": "Activation", "inbound_nodes": [[["batch_normalization_5", 0, 0, {}]]]}, {"name": "max_pooling2d_2", "config": {"name": "max_pooling2d_2", "data_format": "channels_last", "strides": [2, 2], "trainable": false, "pool_size": [3, 3], "padding": "valid"}, "class_name": "MaxPooling2D", "inbound_nodes": [[["activation_5", 0, 0, {}]]]}, {"name": "conv2d_9", "config": {"kernel_regularizer": null, "kernel_initializer": {"config": {"seed": null, "distribution": "uniform", "scale": 1.0, "mode": "fan_avg"}, "class_name": "VarianceScaling"}, "strides": [1, 1], "bias_regularizer": null, "filters": 64, "bias_initializer": {"config": {}, "class_name": "Zeros"}, "use_bias": false, "activation": "linear", "kernel_constraint": null, "name": "conv2d_9", "data_format": "channels_last", "trainable": false, "bias_constraint": null, "activity_regularizer": null, "padding": "same", "kernel_size": [1, 1], "dilation_rate": [1, 1]}, "class_name": "Conv2D", "inbound_nodes": [[["max_pooling2d_2", 0, 0, {}]]]}, {"name": "batch_normalization_9", "config": {"beta_regularizer": null, "gamma_regularizer": null, "center": true, "scale": false, "gamma_constraint": null, "epsilon": 0.001, "axis": 3, "beta_constraint": null, "moving_mean_initializer": {"config": {}, "class_name": "Zeros"}, "name": "batch_normalization_9", "trainable": false, "moving_variance_initializer": {"config": {}, "class_name": "Ones"}, "momentum": 0.99, "gamma_initializer": {"config": {}, "class_name": "Ones"}, "beta_initializer": {"config": {}, "class_name": "Zeros"}}, "class_name": "BatchNormalization", "inbound_nodes": [[["conv2d_9", 0, 0, {}]]]}, {"name": "activation_9", "config": {"name": "activation_9", "activation": "relu", "trainable": false}, "class_name": "Activation", "inbound_nodes": [[["batch_normalization_9", 0, 0, {}]]]}, {"name": "conv2d_7", "config": {"kernel_regularizer": null, "kernel_initializer": {"config": {"seed": null, "distribution": "uniform", "scale": 1.0, "mode": "fan_avg"}, "class_name": "VarianceScaling"}, "strides": [1, 1], "bias_regularizer": null, "filters": 48, "bias_initializer": {"config": {}, "class_name": "Zeros"}, "use_bias": false, "activation": "linear", "kernel_constraint": null, "name": "conv2d_7", "data_format": "channels_last", "trainable": false, "bias_constraint": null, "activity_regularizer": null, "padding": "same", "kernel_size": [1, 1], "dilation_rate": [1, 1]}, "class_name": "Conv2D", "inbound_nodes": [[["max_pooling2d_2", 0, 0, {}]]]}, {"name": "conv2d_10", "config": {"kernel_regularizer": null, "kernel_initializer": {"config": {"seed": null, "distribution": "uniform", "scale": 1.0, "mode": "fan_avg"}, "class_name": "VarianceScaling"}, "strides": [1, 1], "bias_regularizer": null, "filters": 96, "bias_initializer": {"config": {}, "class_name": "Zeros"}, "use_bias": false, "activation": "linear", "kernel_constraint": null, "name": "conv2d_10", "data_format": "channels_last", "trainable": false, "bias_constraint": null, "activity_regularizer": null, "padding": "same", "kernel_size": [3, 3], "dilation_rate": [1, 1]}, "class_name": "Conv2D", "inbound_nodes": [[["activation_9", 0, 0, {}]]]}, {"name": "batch_normalization_7", "config": {"beta_regularizer": null, "gamma_regularizer": null, "center": true, "scale": false, "gamma_constraint": null, "epsilon": 0.001, "axis": 3, "beta_constraint": null, "moving_mean_initializer": {"config": {}, "class_name": "Zeros"}, "name": "batch_normalization_7", "trainable": false, "moving_variance_initializer": {"config": {}, "class_name": "Ones"}, "momentum": 0.99, "gamma_initializer": {"config": {}, "class_name": "Ones"}, "beta_initializer": {"config": {}, "class_name": "Zeros"}}, "class_name": "BatchNormalization", "inbound_nodes": [[["conv2d_7", 0, 0, {}]]]}, {"name": "batch_normalization_10", "config": {"beta_regularizer": null, "gamma_regularizer": null, "center": true, "scale": false, "gamma_constraint": null, "epsilon": 0.001, "axis": 3, "beta_constraint": null, "moving_mean_initializer": {"config": {}, "class_name": "Zeros"}, "name": "batch_normalization_10", "trainable": false, "moving_variance_initializer": {"config": {}, "class_name": "Ones"}, "momentum": 0.99, "gamma_initializer": {"config": {}, "class_name": "Ones"}, "beta_initializer": {"config": {}, "class_name": "Zeros"}}, "class_name": "BatchNormalization", "inbound_nodes": [[["conv2d_10", 0, 0, {}]]]}, {"name": "activation_7", "config": {"name": "activation_7", "activation": "relu", "trainable": false}, "class_name": "Activation", "inbound_nodes": [[["batch_normalization_7", 0, 0, {}]]]}, {"name": "activation_10", "config": {"name": "activation_10", "activation": "relu", "trainable": false}, "class_name": "Activation", "inbound_nodes": [[["batch_normalization_10", 0, 0, {}]]]}, {"name": "average_pooling2d_1", "config": {"name": "average_pooling2d_1", "data_format": "channels_last", "strides": [1, 1], "trainable": false, "pool_size": [3, 3], "padding": "same"}, "class_name": "AveragePooling2D", "inbound_nodes": [[["max_pooling2d_2", 0, 0, {}]]]}, {"name": "conv2d_6", "config": {"kernel_regularizer": null, "kernel_initializer": {"config": {"seed": null, "distribution": "uniform", "scale": 1.0, "mode": "fan_avg"}, "class_name": "VarianceScaling"}, "strides": [1, 1], "bias_regularizer": null, "filters": 64, "bias_initializer": {"config": {}, "class_name": "Zeros"}, "use_bias": false, "activation": "linear", "kernel_constraint": null, "name": "conv2d_6", "data_format": "channels_last", "trainable": false, "bias_constraint": null, "activity_regularizer": null, "padding": "same", "kernel_size": [1, 1], "dilation_rate": [1, 1]}, "class_name": "Conv2D", "inbound_nodes": [[["max_pooling2d_2", 0, 0, {}]]]}, {"name": "conv2d_8", "config": {"kernel_regularizer": null, "kernel_initializer": {"config": {"seed": null, "distribution": "uniform", "scale": 1.0, "mode": "fan_avg"}, "class_name": "VarianceScaling"}, "strides": [1, 1], "bias_regularizer": null, "filters": 64, "bias_initializer": {"config": {}, "class_name": "Zeros"}, "use_bias": false, "activation": "linear", "kernel_constraint": null, "name": "conv2d_8", "data_format": "channels_last", "trainable": false, "bias_constraint": null, "activity_regularizer": null, "padding": "same", "kernel_size": [5, 5], "dilation_rate": [1, 1]}, "class_name": "Conv2D", "inbound_nodes": [[["activation_7", 0, 0, {}]]]}, {"name": "conv2d_11", "config": {"kernel_regularizer": null, "kernel_initializer": {"config": {"seed": null, "distribution": "uniform", "scale": 1.0, "mode": "fan_avg"}, "class_name": "VarianceScaling"}, "strides": [1, 1], "bias_regularizer": null, "filters": 96, "bias_initializer": {"config": {}, "class_name": "Zeros"}, "use_bias": false, "activation": "linear", "kernel_constraint": null, "name": "conv2d_11", "data_format": "channels_last", "trainable": false, "bias_constraint": null, "activity_regularizer": null, "padding": "same", "kernel_size": [3, 3], "dilation_rate": [1, 1]}, "class_name": "Conv2D", "inbound_nodes": [[["activation_10", 0, 0, {}]]]}, {"name": "conv2d_12", "config": {"kernel_regularizer": null, "kernel_initializer": {"config": {"seed": null, "distribution": "uniform", "scale": 1.0, "mode": "fan_avg"}, "class_name": "VarianceScaling"}, "strides": [1, 1], "bias_regularizer": null, "filters": 32, "bias_initializer": {"config": {}, "class_name": "Zeros"}, "use_bias": false, "activation": "linear", "kernel_constraint": null, "name": "conv2d_12", "data_format": "channels_last", "trainable": false, "bias_constraint": null, "activity_regularizer": null, "padding": "same", "kernel_size": [1, 1], "dilation_rate": [1, 1]}, "class_name": "Conv2D", "inbound_nodes": [[["average_pooling2d_1", 0, 0, {}]]]}, {"name": "batch_normalization_6", "config": {"beta_regularizer": null, "gamma_regularizer": null, "center": true, "scale": false, "gamma_constraint": null, "epsilon": 0.001, "axis": 3, "beta_constraint": null, "moving_mean_initializer": {"config": {}, "class_name": "Zeros"}, "name": "batch_normalization_6", "trainable": false, "moving_variance_initializer": {"config": {}, "class_name": "Ones"}, "momentum": 0.99, "gamma_initializer": {"config": {}, "class_name": "Ones"}, "beta_initializer": {"config": {}, "class_name": "Zeros"}}, "class_name": "BatchNormalization", "inbound_nodes": [[["conv2d_6", 0, 0, {}]]]}, {"name": "batch_normalization_8", "config": {"beta_regularizer": null, "gamma_regularizer": null, "center": true, "scale": false, "gamma_constraint": null, "epsilon": 0.001, "axis": 3, "beta_constraint": null, "moving_mean_initializer": {"config": {}, "class_name": "Zeros"}, "name": "batch_normalization_8", "trainable": false, "moving_variance_initializer": {"config": {}, "class_name": "Ones"}, "momentum": 0.99, "gamma_initializer": {"config": {}, "class_name": "Ones"}, "beta_initializer": {"config": {}, "class_name": "Zeros"}}, "class_name": "BatchNormalization", "inbound_nodes": [[["conv2d_8", 0, 0, {}]]]}, {"name": "batch_normalization_11", "config": {"beta_regularizer": null, "gamma_regularizer": null, "center": true, "scale": false, "gamma_constraint": null, "epsilon": 0.001, "axis": 3, "beta_constraint": null, "moving_mean_initializer": {"config": {}, "class_name": "Zeros"}, "name": "batch_normalization_11", "trainable": false, "moving_variance_initializer": {"config": {}, "class_name": "Ones"}, "momentum": 0.99, "gamma_initializer": {"config": {}, "class_name": "Ones"}, "beta_initializer": {"config": {}, "class_name": "Zeros"}}, "class_name": "BatchNormalization", "inbound_nodes": [[["conv2d_11", 0, 0, {}]]]}, {"name": "batch_normalization_12", "config": {"beta_regularizer": null, "gamma_regularizer": null, "center": true, "scale": false, "gamma_constraint": null, "epsilon": 0.001, "axis": 3, "beta_constraint": null, "moving_mean_initializer": {"config": {}, "class_name": "Zeros"}, "name": "batch_normalization_12", "trainable": false, "moving_variance_initializer": {"config": {}, "class_name": "Ones"}, "momentum": 0.99, "gamma_initializer": {"config": {}, "class_name": "Ones"}, "beta_initializer": {"config": {}, "class_name": "Zeros"}}, "class_name": "BatchNormalization", "inbound_nodes": [[["conv2d_12", 0, 0, {}]]]}, {"name": "activation_6", "config": {"name": "activation_6", "activation": "relu", "trainable": false}, "class_name": "Activation", "inbound_nodes": [[["batch_normalization_6", 0, 0, {}]]]}, {"name": "activation_8", "config": {"name": "activation_8", "activation": "relu", "trainable": false}, "class_name": "Activation", "inbound_nodes": [[["batch_normalization_8", 0, 0, {}]]]}, {"name": "activation_11", "config": {"name": "activation_11", "activation": "relu", "trainable": false}, "class_name": "Activation", "inbound_nodes": [[["batch_normalization_11", 0, 0, {}]]]}, {"name": "activation_12", "config": {"name": "activation_12", "activation": "relu", "trainable": false}, "class_name": "Activation", "inbound_nodes": [[["batch_normalization_12", 0, 0, {}]]]}, {"name": "mixed0", "config": {"name": "mixed0", "trainable": false, "axis": 3}, "class_name": "Concatenate", "inbound_nodes": [[["activation_6", 0, 0, {}], ["activation_8", 0, 0, {}], ["activation_11", 0, 0, {}], ["activation_12", 0, 0, {}]]]}, {"name": "conv2d_16", "config": {"kernel_regularizer": null, "kernel_initializer": {"config": {"seed": null, "distribution": "uniform", "scale": 1.0, "mode": "fan_avg"}, "class_name": "VarianceScaling"}, "strides": [1, 1], "bias_regularizer": null, "filters": 64, "bias_initializer": {"config": {}, "class_name": "Zeros"}, "use_bias": false, "activation": "linear", "kernel_constraint": null, "name": "conv2d_16", "data_format": "channels_last", "trainable": false, "bias_constraint": null, "activity_regularizer": null, "padding": "same", "kernel_size": [1, 1], "dilation_rate": [1, 1]}, "class_name": "Conv2D", "inbound_nodes": [[["mixed0", 0, 0, {}]]]}, {"name": "batch_normalization_16", "config": {"beta_regularizer": null, "gamma_regularizer": null, "center": true, "scale": false, "gamma_constraint": null, "epsilon": 0.001, "axis": 3, "beta_constraint": null, "moving_mean_initializer": {"config": {}, "class_name": "Zeros"}, "name": "batch_normalization_16", "trainable": false, "moving_variance_initializer": {"config": {}, "class_name": "Ones"}, "momentum": 0.99, "gamma_initializer": {"config": {}, "class_name": "Ones"}, "beta_initializer": {"config": {}, "class_name": "Zeros"}}, "class_name": "BatchNormalization", "inbound_nodes": [[["conv2d_16", 0, 0, {}]]]}, {"name": "activation_16", "config": {"name": "activation_16", "activation": "relu", "trainable": false}, "class_name": "Activation", "inbound_nodes": [[["batch_normalization_16", 0, 0, {}]]]}, {"name": "conv2d_14", "config": {"kernel_regularizer": null, "kernel_initializer": {"config": {"seed": null, "distribution": "uniform", "scale": 1.0, "mode": "fan_avg"}, "class_name": "VarianceScaling"}, "strides": [1, 1], "bias_regularizer": null, "filters": 48, "bias_initializer": {"config": {}, "class_name": "Zeros"}, "use_bias": false, "activation": "linear", "kernel_constraint": null, "name": "conv2d_14", "data_format": "channels_last", "trainable": false, "bias_constraint": null, "activity_regularizer": null, "padding": "same", "kernel_size": [1, 1], "dilation_rate": [1, 1]}, "class_name": "Conv2D", "inbound_nodes": [[["mixed0", 0, 0, {}]]]}, {"name": "conv2d_17", "config": {"kernel_regularizer": null, "kernel_initializer": {"config": {"seed": null, "distribution": "uniform", "scale": 1.0, "mode": "fan_avg"}, "class_name": "VarianceScaling"}, "strides": [1, 1], "bias_regularizer": null, "filters": 96, "bias_initializer": {"config": {}, "class_name": "Zeros"}, "use_bias": false, "activation": "linear", "kernel_constraint": null, "name": "conv2d_17", "data_format": "channels_last", "trainable": false, "bias_constraint": null, "activity_regularizer": null, "padding": "same", "kernel_size": [3, 3], "dilation_rate": [1, 1]}, "class_name": "Conv2D", "inbound_nodes": [[["activation_16", 0, 0, {}]]]}, {"name": "batch_normalization_14", "config": {"beta_regularizer": null, "gamma_regularizer": null, "center": true, "scale": false, "gamma_constraint": null, "epsilon": 0.001, "axis": 3, "beta_constraint": null, "moving_mean_initializer": {"config": {}, "class_name": "Zeros"}, "name": "batch_normalization_14", "trainable": false, "moving_variance_initializer": {"config": {}, "class_name": "Ones"}, "momentum": 0.99, "gamma_initializer": {"config": {}, "class_name": "Ones"}, "beta_initializer": {"config": {}, "class_name": "Zeros"}}, "class_name": "BatchNormalization", "inbound_nodes": [[["conv2d_14", 0, 0, {}]]]}, {"name": "batch_normalization_17", "config": {"beta_regularizer": null, "gamma_regularizer": null, "center": true, "scale": false, "gamma_constraint": null, "epsilon": 0.001, "axis": 3, "beta_constraint": null, "moving_mean_initializer": {"config": {}, "class_name": "Zeros"}, "name": "batch_normalization_17", "trainable": false, "moving_variance_initializer": {"config": {}, "class_name": "Ones"}, "momentum": 0.99, "gamma_initializer": {"config": {}, "class_name": "Ones"}, "beta_initializer": {"config": {}, "class_name": "Zeros"}}, "class_name": "BatchNormalization", "inbound_nodes": [[["conv2d_17", 0, 0, {}]]]}, {"name": "activation_14", "config": {"name": "activation_14", "activation": "relu", "trainable": false}, "class_name": "Activation", "inbound_nodes": [[["batch_normalization_14", 0, 0, {}]]]}, {"name": "activation_17", "config": {"name": "activation_17", "activation": "relu", "trainable": false}, "class_name": "Activation", "inbound_nodes": [[["batch_normalization_17", 0, 0, {}]]]}, {"name": "average_pooling2d_2", "config": {"name": "average_pooling2d_2", "data_format": "channels_last", "strides": [1, 1], "trainable": false, "pool_size": [3, 3], "padding": "same"}, "class_name": "AveragePooling2D", "inbound_nodes": [[["mixed0", 0, 0, {}]]]}, {"name": "conv2d_13", "config": {"kernel_regularizer": null, "kernel_initializer": {"config": {"seed": null, "distribution": "uniform", "scale": 1.0, "mode": "fan_avg"}, "class_name": "VarianceScaling"}, "strides": [1, 1], "bias_regularizer": null, "filters": 64, "bias_initializer": {"config": {}, "class_name": "Zeros"}, "use_bias": false, "activation": "linear", "kernel_constraint": null, "name": "conv2d_13", "data_format": "channels_last", "trainable": false, "bias_constraint": null, "activity_regularizer": null, "padding": "same", "kernel_size": [1, 1], "dilation_rate": [1, 1]}, "class_name": "Conv2D", "inbound_nodes": [[["mixed0", 0, 0, {}]]]}, {"name": "conv2d_15", "config": {"kernel_regularizer": null, "kernel_initializer": {"config": {"seed": null, "distribution": "uniform", "scale": 1.0, "mode": "fan_avg"}, "class_name": "VarianceScaling"}, "strides": [1, 1], "bias_regularizer": null, "filters": 64, "bias_initializer": {"config": {}, "class_name": "Zeros"}, "use_bias": false, "activation": "linear", "kernel_constraint": null, "name": "conv2d_15", "data_format": "channels_last", "trainable": false, "bias_constraint": null, "activity_regularizer": null, "padding": "same", "kernel_size": [5, 5], "dilation_rate": [1, 1]}, "class_name": "Conv2D", "inbound_nodes": [[["activation_14", 0, 0, {}]]]}, {"name": "conv2d_18", "config": {"kernel_regularizer": null, "kernel_initializer": {"config": {"seed": null, "distribution": "uniform", "scale": 1.0, "mode": "fan_avg"}, "class_name": "VarianceScaling"}, "strides": [1, 1], "bias_regularizer": null, "filters": 96, "bias_initializer": {"config": {}, "class_name": "Zeros"}, "use_bias": false, "activation": "linear", "kernel_constraint": null, "name": "conv2d_18", "data_format": "channels_last", "trainable": false, "bias_constraint": null, "activity_regularizer": null, "padding": "same", "kernel_size": [3, 3], "dilation_rate": [1, 1]}, "class_name": "Conv2D", "inbound_nodes": [[["activation_17", 0, 0, {}]]]}, {"name": "conv2d_19", "config": {"kernel_regularizer": null, "kernel_initializer": {"config": {"seed": null, "distribution": "uniform", "scale": 1.0, "mode": "fan_avg"}, "class_name": "VarianceScaling"}, "strides": [1, 1], "bias_regularizer": null, "filters": 64, "bias_initializer": {"config": {}, "class_name": "Zeros"}, "use_bias": false, "activation": "linear", "kernel_constraint": null, "name": "conv2d_19", "data_format": "channels_last", "trainable": false, "bias_constraint": null, "activity_regularizer": null, "padding": "same", "kernel_size": [1, 1], "dilation_rate": [1, 1]}, "class_name": "Conv2D", "inbound_nodes": [[["average_pooling2d_2", 0, 0, {}]]]}, {"name": "batch_normalization_13", "config": {"beta_regularizer": null, "gamma_regularizer": null, "center": true, "scale": false, "gamma_constraint": null, "epsilon": 0.001, "axis": 3, "beta_constraint": null, "moving_mean_initializer": {"config": {}, "class_name": "Zeros"}, "name": "batch_normalization_13", "trainable": false, "moving_variance_initializer": {"config": {}, "class_name": "Ones"}, "momentum": 0.99, "gamma_initializer": {"config": {}, "class_name": "Ones"}, "beta_initializer": {"config": {}, "class_name": "Zeros"}}, "class_name": "BatchNormalization", "inbound_nodes": [[["conv2d_13", 0, 0, {}]]]}, {"name": "batch_normalization_15", "config": {"beta_regularizer": null, "gamma_regularizer": null, "center": true, "scale": false, "gamma_constraint": null, "epsilon": 0.001, "axis": 3, "beta_constraint": null, "moving_mean_initializer": {"config": {}, "class_name": "Zeros"}, "name": "batch_normalization_15", "trainable": false, "moving_variance_initializer": {"config": {}, "class_name": "Ones"}, "momentum": 0.99, "gamma_initializer": {"config": {}, "class_name": "Ones"}, "beta_initializer": {"config": {}, "class_name": "Zeros"}}, "class_name": "BatchNormalization", "inbound_nodes": [[["conv2d_15", 0, 0, {}]]]}, {"name": "batch_normalization_18", "config": {"beta_regularizer": null, "gamma_regularizer": null, "center": true, "scale": false, "gamma_constraint": null, "epsilon": 0.001, "axis": 3, "beta_constraint": null, "moving_mean_initializer": {"config": {}, "class_name": "Zeros"}, "name": "batch_normalization_18", "trainable": false, "moving_variance_initializer": {"config": {}, "class_name": "Ones"}, "momentum": 0.99, "gamma_initializer": {"config": {}, "class_name": "Ones"}, "beta_initializer": {"config": {}, "class_name": "Zeros"}}, "class_name": "BatchNormalization", "inbound_nodes": [[["conv2d_18", 0, 0, {}]]]}, {"name": "batch_normalization_19", "config": {"beta_regularizer": null, "gamma_regularizer": null, "center": true, "scale": false, "gamma_constraint": null, "epsilon": 0.001, "axis": 3, "beta_constraint": null, "moving_mean_initializer": {"config": {}, "class_name": "Zeros"}, "name": "batch_normalization_19", "trainable": false, "moving_variance_initializer": {"config": {}, "class_name": "Ones"}, "momentum": 0.99, "gamma_initializer": {"config": {}, "class_name": "Ones"}, "beta_initializer": {"config": {}, "class_name": "Zeros"}}, "class_name": "BatchNormalization", "inbound_nodes": [[["conv2d_19", 0, 0, {}]]]}, {"name": "activation_13", "config": {"name": "activation_13", "activation": "relu", "trainable": false}, "class_name": "Activation", "inbound_nodes": [[["batch_normalization_13", 0, 0, {}]]]}, {"name": "activation_15", "config": {"name": "activation_15", "activation": "relu", "trainable": false}, "class_name": "Activation", "inbound_nodes": [[["batch_normalization_15", 0, 0, {}]]]}, {"name": "activation_18", "config": {"name": "activation_18", "activation": "relu", "trainable": false}, "class_name": "Activation", "inbound_nodes": [[["batch_normalization_18", 0, 0, {}]]]}, {"name": "activation_19", "config": {"name": "activation_19", "activation": "relu", "trainable": false}, "class_name": "Activation", "inbound_nodes": [[["batch_normalization_19", 0, 0, {}]]]}, {"name": "mixed1", "config": {"name": "mixed1", "trainable": false, "axis": 3}, "class_name": "Concatenate", "inbound_nodes": [[["activation_13", 0, 0, {}], ["activation_15", 0, 0, {}], ["activation_18", 0, 0, {}], ["activation_19", 0, 0, {}]]]}, {"name": "conv2d_23", "config": {"kernel_regularizer": null, "kernel_initializer": {"config": {"seed": null, "distribution": "uniform", "scale": 1.0, "mode": "fan_avg"}, "class_name": "VarianceScaling"}, "strides": [1, 1], "bias_regularizer": null, "filters": 64, "bias_initializer": {"config": {}, "class_name": "Zeros"}, "use_bias": false, "activation": "linear", "kernel_constraint": null, "name": "conv2d_23", "data_format": "channels_last", "trainable": false, "bias_constraint": null, "activity_regularizer": null, "padding": "same", "kernel_size": [1, 1], "dilation_rate": [1, 1]}, "class_name": "Conv2D", "inbound_nodes": [[["mixed1", 0, 0, {}]]]}, {"name": "batch_normalization_23", "config": {"beta_regularizer": null, "gamma_regularizer": null, "center": true, "scale": false, "gamma_constraint": null, "epsilon": 0.001, "axis": 3, "beta_constraint": null, "moving_mean_initializer": {"config": {}, "class_name": "Zeros"}, "name": "batch_normalization_23", "trainable": false, "moving_variance_initializer": {"config": {}, "class_name": "Ones"}, "momentum": 0.99, "gamma_initializer": {"config": {}, "class_name": "Ones"}, "beta_initializer": {"config": {}, "class_name": "Zeros"}}, "class_name": "BatchNormalization", "inbound_nodes": [[["conv2d_23", 0, 0, {}]]]}, {"name": "activation_23", "config": {"name": "activation_23", "activation": "relu", "trainable": false}, "class_name": "Activation", "inbound_nodes": [[["batch_normalization_23", 0, 0, {}]]]}, {"name": "conv2d_21", "config": {"kernel_regularizer": null, "kernel_initializer": {"config": {"seed": null, "distribution": "uniform", "scale": 1.0, "mode": "fan_avg"}, "class_name": "VarianceScaling"}, "strides": [1, 1], "bias_regularizer": null, "filters": 48, "bias_initializer": {"config": {}, "class_name": "Zeros"}, "use_bias": false, "activation": "linear", "kernel_constraint": null, "name": "conv2d_21", "data_format": "channels_last", "trainable": false, "bias_constraint": null, "activity_regularizer": null, "padding": "same", "kernel_size": [1, 1], "dilation_rate": [1, 1]}, "class_name": "Conv2D", "inbound_nodes": [[["mixed1", 0, 0, {}]]]}, {"name": "conv2d_24", "config": {"kernel_regularizer": null, "kernel_initializer": {"config": {"seed": null, "distribution": "uniform", "scale": 1.0, "mode": "fan_avg"}, "class_name": "VarianceScaling"}, "strides": [1, 1], "bias_regularizer": null, "filters": 96, "bias_initializer": {"config": {}, "class_name": "Zeros"}, "use_bias": false, "activation": "linear", "kernel_constraint": null, "name": "conv2d_24", "data_format": "channels_last", "trainable": false, "bias_constraint": null, "activity_regularizer": null, "padding": "same", "kernel_size": [3, 3], "dilation_rate": [1, 1]}, "class_name": "Conv2D", "inbound_nodes": [[["activation_23", 0, 0, {}]]]}, {"name": "batch_normalization_21", "config": {"beta_regularizer": null, "gamma_regularizer": null, "center": true, "scale": false, "gamma_constraint": null, "epsilon": 0.001, "axis": 3, "beta_constraint": null, "moving_mean_initializer": {"config": {}, "class_name": "Zeros"}, "name": "batch_normalization_21", "trainable": false, "moving_variance_initializer": {"config": {}, "class_name": "Ones"}, "momentum": 0.99, "gamma_initializer": {"config": {}, "class_name": "Ones"}, "beta_initializer": {"config": {}, "class_name": "Zeros"}}, "class_name": "BatchNormalization", "inbound_nodes": [[["conv2d_21", 0, 0, {}]]]}, {"name": "batch_normalization_24", "config": {"beta_regularizer": null, "gamma_regularizer": null, "center": true, "scale": false, "gamma_constraint": null, "epsilon": 0.001, "axis": 3, "beta_constraint": null, "moving_mean_initializer": {"config": {}, "class_name": "Zeros"}, "name": "batch_normalization_24", "trainable": false, "moving_variance_initializer": {"config": {}, "class_name": "Ones"}, "momentum": 0.99, "gamma_initializer": {"config": {}, "class_name": "Ones"}, "beta_initializer": {"config": {}, "class_name": "Zeros"}}, "class_name": "BatchNormalization", "inbound_nodes": [[["conv2d_24", 0, 0, {}]]]}, {"name": "activation_21", "config": {"name": "activation_21", "activation": "relu", "trainable": false}, "class_name": "Activation", "inbound_nodes": [[["batch_normalization_21", 0, 0, {}]]]}, {"name": "activation_24", "config": {"name": "activation_24", "activation": "relu", "trainable": false}, "class_name": "Activation", "inbound_nodes": [[["batch_normalization_24", 0, 0, {}]]]}, {"name": "average_pooling2d_3", "config": {"name": "average_pooling2d_3", "data_format": "channels_last", "strides": [1, 1], "trainable": false, "pool_size": [3, 3], "padding": "same"}, "class_name": "AveragePooling2D", "inbound_nodes": [[["mixed1", 0, 0, {}]]]}, {"name": "conv2d_20", "config": {"kernel_regularizer": null, "kernel_initializer": {"config": {"seed": null, "distribution": "uniform", "scale": 1.0, "mode": "fan_avg"}, "class_name": "VarianceScaling"}, "strides": [1, 1], "bias_regularizer": null, "filters": 64, "bias_initializer": {"config": {}, "class_name": "Zeros"}, "use_bias": false, "activation": "linear", "kernel_constraint": null, "name": "conv2d_20", "data_format": "channels_last", "trainable": false, "bias_constraint": null, "activity_regularizer": null, "padding": "same", "kernel_size": [1, 1], "dilation_rate": [1, 1]}, "class_name": "Conv2D", "inbound_nodes": [[["mixed1", 0, 0, {}]]]}, {"name": "conv2d_22", "config": {"kernel_regularizer": null, "kernel_initializer": {"config": {"seed": null, "distribution": "uniform", "scale": 1.0, "mode": "fan_avg"}, "class_name": "VarianceScaling"}, "strides": [1, 1], "bias_regularizer": null, "filters": 64, "bias_initializer": {"config": {}, "class_name": "Zeros"}, "use_bias": false, "activation": "linear", "kernel_constraint": null, "name": "conv2d_22", "data_format": "channels_last", "trainable": false, "bias_constraint": null, "activity_regularizer": null, "padding": "same", "kernel_size": [5, 5], "dilation_rate": [1, 1]}, "class_name": "Conv2D", "inbound_nodes": [[["activation_21", 0, 0, {}]]]}, {"name": "conv2d_25", "config": {"kernel_regularizer": null, "kernel_initializer": {"config": {"seed": null, "distribution": "uniform", "scale": 1.0, "mode": "fan_avg"}, "class_name": "VarianceScaling"}, "strides": [1, 1], "bias_regularizer": null, "filters": 96, "bias_initializer": {"config": {}, "class_name": "Zeros"}, "use_bias": false, "activation": "linear", "kernel_constraint": null, "name": "conv2d_25", "data_format": "channels_last", "trainable": false, "bias_constraint": null, "activity_regularizer": null, "padding": "same", "kernel_size": [3, 3], "dilation_rate": [1, 1]}, "class_name": "Conv2D", "inbound_nodes": [[["activation_24", 0, 0, {}]]]}, {"name": "conv2d_26", "config": {"kernel_regularizer": null, "kernel_initializer": {"config": {"seed": null, "distribution": "uniform", "scale": 1.0, "mode": "fan_avg"}, "class_name": "VarianceScaling"}, "strides": [1, 1], "bias_regularizer": null, "filters": 64, "bias_initializer": {"config": {}, "class_name": "Zeros"}, "use_bias": false, "activation": "linear", "kernel_constraint": null, "name": "conv2d_26", "data_format": "channels_last", "trainable": false, "bias_constraint": null, "activity_regularizer": null, "padding": "same", "kernel_size": [1, 1], "dilation_rate": [1, 1]}, "class_name": "Conv2D", "inbound_nodes": [[["average_pooling2d_3", 0, 0, {}]]]}, {"name": "batch_normalization_20", "config": {"beta_regularizer": null, "gamma_regularizer": null, "center": true, "scale": false, "gamma_constraint": null, "epsilon": 0.001, "axis": 3, "beta_constraint": null, "moving_mean_initializer": {"config": {}, "class_name": "Zeros"}, "name": "batch_normalization_20", "trainable": false, "moving_variance_initializer": {"config": {}, "class_name": "Ones"}, "momentum": 0.99, "gamma_initializer": {"config": {}, "class_name": "Ones"}, "beta_initializer": {"config": {}, "class_name": "Zeros"}}, "class_name": "BatchNormalization", "inbound_nodes": [[["conv2d_20", 0, 0, {}]]]}, {"name": "batch_normalization_22", "config": {"beta_regularizer": null, "gamma_regularizer": null, "center": true, "scale": false, "gamma_constraint": null, "epsilon": 0.001, "axis": 3, "beta_constraint": null, "moving_mean_initializer": {"config": {}, "class_name": "Zeros"}, "name": "batch_normalization_22", "trainable": false, "moving_variance_initializer": {"config": {}, "class_name": "Ones"}, "momentum": 0.99, "gamma_initializer": {"config": {}, "class_name": "Ones"}, "beta_initializer": {"config": {}, "class_name": "Zeros"}}, "class_name": "BatchNormalization", "inbound_nodes": [[["conv2d_22", 0, 0, {}]]]}, {"name": "batch_normalization_25", "config": {"beta_regularizer": null, "gamma_regularizer": null, "center": true, "scale": false, "gamma_constraint": null, "epsilon": 0.001, "axis": 3, "beta_constraint": null, "moving_mean_initializer": {"config": {}, "class_name": "Zeros"}, "name": "batch_normalization_25", "trainable": false, "moving_variance_initializer": {"config": {}, "class_name": "Ones"}, "momentum": 0.99, "gamma_initializer": {"config": {}, "class_name": "Ones"}, "beta_initializer": {"config": {}, "class_name": "Zeros"}}, "class_name": "BatchNormalization", "inbound_nodes": [[["conv2d_25", 0, 0, {}]]]}, {"name": "batch_normalization_26", "config": {"beta_regularizer": null, "gamma_regularizer": null, "center": true, "scale": false, "gamma_constraint": null, "epsilon": 0.001, "axis": 3, "beta_constraint": null, "moving_mean_initializer": {"config": {}, "class_name": "Zeros"}, "name": "batch_normalization_26", "trainable": false, "moving_variance_initializer": {"config": {}, "class_name": "Ones"}, "momentum": 0.99, "gamma_initializer": {"config": {}, "class_name": "Ones"}, "beta_initializer": {"config": {}, "class_name": "Zeros"}}, "class_name": "BatchNormalization", "inbound_nodes": [[["conv2d_26", 0, 0, {}]]]}, {"name": "activation_20", "config": {"name": "activation_20", "activation": "relu", "trainable": false}, "class_name": "Activation", "inbound_nodes": [[["batch_normalization_20", 0, 0, {}]]]}, {"name": "activation_22", "config": {"name": "activation_22", "activation": "relu", "trainable": false}, "class_name": "Activation", "inbound_nodes": [[["batch_normalization_22", 0, 0, {}]]]}, {"name": "activation_25", "config": {"name": "activation_25", "activation": "relu", "trainable": false}, "class_name": "Activation", "inbound_nodes": [[["batch_normalization_25", 0, 0, {}]]]}, {"name": "activation_26", "config": {"name": "activation_26", "activation": "relu", "trainable": false}, "class_name": "Activation", "inbound_nodes": [[["batch_normalization_26", 0, 0, {}]]]}, {"name": "mixed2", "config": {"name": "mixed2", "trainable": false, "axis": 3}, "class_name": "Concatenate", "inbound_nodes": [[["activation_20", 0, 0, {}], ["activation_22", 0, 0, {}], ["activation_25", 0, 0, {}], ["activation_26", 0, 0, {}]]]}, {"name": "conv2d_28", "config": {"kernel_regularizer": null, "kernel_initializer": {"config": {"seed": null, "distribution": "uniform", "scale": 1.0, "mode": "fan_avg"}, "class_name": "VarianceScaling"}, "strides": [1, 1], "bias_regularizer": null, "filters": 64, "bias_initializer": {"config": {}, "class_name": "Zeros"}, "use_bias": false, "activation": "linear", "kernel_constraint": null, "name": "conv2d_28", "data_format": "channels_last", "trainable": false, "bias_constraint": null, "activity_regularizer": null, "padding": "same", "kernel_size": [1, 1], "dilation_rate": [1, 1]}, "class_name": "Conv2D", "inbound_nodes": [[["mixed2", 0, 0, {}]]]}, {"name": "batch_normalization_28", "config": {"beta_regularizer": null, "gamma_regularizer": null, "center": true, "scale": false, "gamma_constraint": null, "epsilon": 0.001, "axis": 3, "beta_constraint": null, "moving_mean_initializer": {"config": {}, "class_name": "Zeros"}, "name": "batch_normalization_28", "trainable": false, "moving_variance_initializer": {"config": {}, "class_name": "Ones"}, "momentum": 0.99, "gamma_initializer": {"config": {}, "class_name": "Ones"}, "beta_initializer": {"config": {}, "class_name": "Zeros"}}, "class_name": "BatchNormalization", "inbound_nodes": [[["conv2d_28", 0, 0, {}]]]}, {"name": "activation_28", "config": {"name": "activation_28", "activation": "relu", "trainable": false}, "class_name": "Activation", "inbound_nodes": [[["batch_normalization_28", 0, 0, {}]]]}, {"name": "conv2d_29", "config": {"kernel_regularizer": null, "kernel_initializer": {"config": {"seed": null, "distribution": "uniform", "scale": 1.0, "mode": "fan_avg"}, "class_name": "VarianceScaling"}, "strides": [1, 1], "bias_regularizer": null, "filters": 96, "bias_initializer": {"config": {}, "class_name": "Zeros"}, "use_bias": false, "activation": "linear", "kernel_constraint": null, "name": "conv2d_29", "data_format": "channels_last", "trainable": false, "bias_constraint": null, "activity_regularizer": null, "padding": "same", "kernel_size": [3, 3], "dilation_rate": [1, 1]}, "class_name": "Conv2D", "inbound_nodes": [[["activation_28", 0, 0, {}]]]}, {"name": "batch_normalization_29", "config": {"beta_regularizer": null, "gamma_regularizer": null, "center": true, "scale": false, "gamma_constraint": null, "epsilon": 0.001, "axis": 3, "beta_constraint": null, "moving_mean_initializer": {"config": {}, "class_name": "Zeros"}, "name": "batch_normalization_29", "trainable": false, "moving_variance_initializer": {"config": {}, "class_name": "Ones"}, "momentum": 0.99, "gamma_initializer": {"config": {}, "class_name": "Ones"}, "beta_initializer": {"config": {}, "class_name": "Zeros"}}, "class_name": "BatchNormalization", "inbound_nodes": [[["conv2d_29", 0, 0, {}]]]}, {"name": "activation_29", "config": {"name": "activation_29", "activation": "relu", "trainable": false}, "class_name": "Activation", "inbound_nodes": [[["batch_normalization_29", 0, 0, {}]]]}, {"name": "conv2d_27", "config": {"kernel_regularizer": null, "kernel_initializer": {"config": {"seed": null, "distribution": "uniform", "scale": 1.0, "mode": "fan_avg"}, "class_name": "VarianceScaling"}, "strides": [2, 2], "bias_regularizer": null, "filters": 384, "bias_initializer": {"config": {}, "class_name": "Zeros"}, "use_bias": false, "activation": "linear", "kernel_constraint": null, "name": "conv2d_27", "data_format": "channels_last", "trainable": false, "bias_constraint": null, "activity_regularizer": null, "padding": "valid", "kernel_size": [3, 3], "dilation_rate": [1, 1]}, "class_name": "Conv2D", "inbound_nodes": [[["mixed2", 0, 0, {}]]]}, {"name": "conv2d_30", "config": {"kernel_regularizer": null, "kernel_initializer": {"config": {"seed": null, "distribution": "uniform", "scale": 1.0, "mode": "fan_avg"}, "class_name": "VarianceScaling"}, "strides": [2, 2], "bias_regularizer": null, "filters": 96, "bias_initializer": {"config": {}, "class_name": "Zeros"}, "use_bias": false, "activation": "linear", "kernel_constraint": null, "name": "conv2d_30", "data_format": "channels_last", "trainable": false, "bias_constraint": null, "activity_regularizer": null, "padding": "valid", "kernel_size": [3, 3], "dilation_rate": [1, 1]}, "class_name": "Conv2D", "inbound_nodes": [[["activation_29", 0, 0, {}]]]}, {"name": "batch_normalization_27", "config": {"beta_regularizer": null, "gamma_regularizer": null, "center": true, "scale": false, "gamma_constraint": null, "epsilon": 0.001, "axis": 3, "beta_constraint": null, "moving_mean_initializer": {"config": {}, "class_name": "Zeros"}, "name": "batch_normalization_27", "trainable": false, "moving_variance_initializer": {"config": {}, "class_name": "Ones"}, "momentum": 0.99, "gamma_initializer": {"config": {}, "class_name": "Ones"}, "beta_initializer": {"config": {}, "class_name": "Zeros"}}, "class_name": "BatchNormalization", "inbound_nodes": [[["conv2d_27", 0, 0, {}]]]}, {"name": "batch_normalization_30", "config": {"beta_regularizer": null, "gamma_regularizer": null, "center": true, "scale": false, "gamma_constraint": null, "epsilon": 0.001, "axis": 3, "beta_constraint": null, "moving_mean_initializer": {"config": {}, "class_name": "Zeros"}, "name": "batch_normalization_30", "trainable": false, "moving_variance_initializer": {"config": {}, "class_name": "Ones"}, "momentum": 0.99, "gamma_initializer": {"config": {}, "class_name": "Ones"}, "beta_initializer": {"config": {}, "class_name": "Zeros"}}, "class_name": "BatchNormalization", "inbound_nodes": [[["conv2d_30", 0, 0, {}]]]}, {"name": "activation_27", "config": {"name": "activation_27", "activation": "relu", "trainable": false}, "class_name": "Activation", "inbound_nodes": [[["batch_normalization_27", 0, 0, {}]]]}, {"name": "activation_30", "config": {"name": "activation_30", "activation": "relu", "trainable": false}, "class_name": "Activation", "inbound_nodes": [[["batch_normalization_30", 0, 0, {}]]]}, {"name": "max_pooling2d_3", "config": {"name": "max_pooling2d_3", "data_format": "channels_last", "strides": [2, 2], "trainable": false, "pool_size": [3, 3], "padding": "valid"}, "class_name": "MaxPooling2D", "inbound_nodes": [[["mixed2", 0, 0, {}]]]}, {"name": "mixed3", "config": {"name": "mixed3", "trainable": false, "axis": 3}, "class_name": "Concatenate", "inbound_nodes": [[["activation_27", 0, 0, {}], ["activation_30", 0, 0, {}], ["max_pooling2d_3", 0, 0, {}]]]}, {"name": "conv2d_35", "config": {"kernel_regularizer": null, "kernel_initializer": {"config": {"seed": null, "distribution": "uniform", "scale": 1.0, "mode": "fan_avg"}, "class_name": "VarianceScaling"}, "strides": [1, 1], "bias_regularizer": null, "filters": 128, "bias_initializer": {"config": {}, "class_name": "Zeros"}, "use_bias": false, "activation": "linear", "kernel_constraint": null, "name": "conv2d_35", "data_format": "channels_last", "trainable": false, "bias_constraint": null, "activity_regularizer": null, "padding": "same", "kernel_size": [1, 1], "dilation_rate": [1, 1]}, "class_name": "Conv2D", "inbound_nodes": [[["mixed3", 0, 0, {}]]]}, {"name": "batch_normalization_35", "config": {"beta_regularizer": null, "gamma_regularizer": null, "center": true, "scale": false, "gamma_constraint": null, "epsilon": 0.001, "axis": 3, "beta_constraint": null, "moving_mean_initializer": {"config": {}, "class_name": "Zeros"}, "name": "batch_normalization_35", "trainable": false, "moving_variance_initializer": {"config": {}, "class_name": "Ones"}, "momentum": 0.99, "gamma_initializer": {"config": {}, "class_name": "Ones"}, "beta_initializer": {"config": {}, "class_name": "Zeros"}}, "class_name": "BatchNormalization", "inbound_nodes": [[["conv2d_35", 0, 0, {}]]]}, {"name": "activation_35", "config": {"name": "activation_35", "activation": "relu", "trainable": false}, "class_name": "Activation", "inbound_nodes": [[["batch_normalization_35", 0, 0, {}]]]}, {"name": "conv2d_36", "config": {"kernel_regularizer": null, "kernel_initializer": {"config": {"seed": null, "distribution": "uniform", "scale": 1.0, "mode": "fan_avg"}, "class_name": "VarianceScaling"}, "strides": [1, 1], "bias_regularizer": null, "filters": 128, "bias_initializer": {"config": {}, "class_name": "Zeros"}, "use_bias": false, "activation": "linear", "kernel_constraint": null, "name": "conv2d_36", "data_format": "channels_last", "trainable": false, "bias_constraint": null, "activity_regularizer": null, "padding": "same", "kernel_size": [7, 1], "dilation_rate": [1, 1]}, "class_name": "Conv2D", "inbound_nodes": [[["activation_35", 0, 0, {}]]]}, {"name": "batch_normalization_36", "config": {"beta_regularizer": null, "gamma_regularizer": null, "center": true, "scale": false, "gamma_constraint": null, "epsilon": 0.001, "axis": 3, "beta_constraint": null, "moving_mean_initializer": {"config": {}, "class_name": "Zeros"}, "name": "batch_normalization_36", "trainable": false, "moving_variance_initializer": {"config": {}, "class_name": "Ones"}, "momentum": 0.99, "gamma_initializer": {"config": {}, "class_name": "Ones"}, "beta_initializer": {"config": {}, "class_name": "Zeros"}}, "class_name": "BatchNormalization", "inbound_nodes": [[["conv2d_36", 0, 0, {}]]]}, {"name": "activation_36", "config": {"name": "activation_36", "activation": "relu", "trainable": false}, "class_name": "Activation", "inbound_nodes": [[["batch_normalization_36", 0, 0, {}]]]}, {"name": "conv2d_32", "config": {"kernel_regularizer": null, "kernel_initializer": {"config": {"seed": null, "distribution": "uniform", "scale": 1.0, "mode": "fan_avg"}, "class_name": "VarianceScaling"}, "strides": [1, 1], "bias_regularizer": null, "filters": 128, "bias_initializer": {"config": {}, "class_name": "Zeros"}, "use_bias": false, "activation": "linear", "kernel_constraint": null, "name": "conv2d_32", "data_format": "channels_last", "trainable": false, "bias_constraint": null, "activity_regularizer": null, "padding": "same", "kernel_size": [1, 1], "dilation_rate": [1, 1]}, "class_name": "Conv2D", "inbound_nodes": [[["mixed3", 0, 0, {}]]]}, {"name": "conv2d_37", "config": {"kernel_regularizer": null, "kernel_initializer": {"config": {"seed": null, "distribution": "uniform", "scale": 1.0, "mode": "fan_avg"}, "class_name": "VarianceScaling"}, "strides": [1, 1], "bias_regularizer": null, "filters": 128, "bias_initializer": {"config": {}, "class_name": "Zeros"}, "use_bias": false, "activation": "linear", "kernel_constraint": null, "name": "conv2d_37", "data_format": "channels_last", "trainable": false, "bias_constraint": null, "activity_regularizer": null, "padding": "same", "kernel_size": [1, 7], "dilation_rate": [1, 1]}, "class_name": "Conv2D", "inbound_nodes": [[["activation_36", 0, 0, {}]]]}, {"name": "batch_normalization_32", "config": {"beta_regularizer": null, "gamma_regularizer": null, "center": true, "scale": false, "gamma_constraint": null, "epsilon": 0.001, "axis": 3, "beta_constraint": null, "moving_mean_initializer": {"config": {}, "class_name": "Zeros"}, "name": "batch_normalization_32", "trainable": false, "moving_variance_initializer": {"config": {}, "class_name": "Ones"}, "momentum": 0.99, "gamma_initializer": {"config": {}, "class_name": "Ones"}, "beta_initializer": {"config": {}, "class_name": "Zeros"}}, "class_name": "BatchNormalization", "inbound_nodes": [[["conv2d_32", 0, 0, {}]]]}, {"name": "batch_normalization_37", "config": {"beta_regularizer": null, "gamma_regularizer": null, "center": true, "scale": false, "gamma_constraint": null, "epsilon": 0.001, "axis": 3, "beta_constraint": null, "moving_mean_initializer": {"config": {}, "class_name": "Zeros"}, "name": "batch_normalization_37", "trainable": false, "moving_variance_initializer": {"config": {}, "class_name": "Ones"}, "momentum": 0.99, "gamma_initializer": {"config": {}, "class_name": "Ones"}, "beta_initializer": {"config": {}, "class_name": "Zeros"}}, "class_name": "BatchNormalization", "inbound_nodes": [[["conv2d_37", 0, 0, {}]]]}, {"name": "activation_32", "config": {"name": "activation_32", "activation": "relu", "trainable": false}, "class_name": "Activation", "inbound_nodes": [[["batch_normalization_32", 0, 0, {}]]]}, {"name": "activation_37", "config": {"name": "activation_37", "activation": "relu", "trainable": false}, "class_name": "Activation", "inbound_nodes": [[["batch_normalization_37", 0, 0, {}]]]}, {"name": "conv2d_33", "config": {"kernel_regularizer": null, "kernel_initializer": {"config": {"seed": null, "distribution": "uniform", "scale": 1.0, "mode": "fan_avg"}, "class_name": "VarianceScaling"}, "strides": [1, 1], "bias_regularizer": null, "filters": 128, "bias_initializer": {"config": {}, "class_name": "Zeros"}, "use_bias": false, "activation": "linear", "kernel_constraint": null, "name": "conv2d_33", "data_format": "channels_last", "trainable": false, "bias_constraint": null, "activity_regularizer": null, "padding": "same", "kernel_size": [1, 7], "dilation_rate": [1, 1]}, "class_name": "Conv2D", "inbound_nodes": [[["activation_32", 0, 0, {}]]]}, {"name": "conv2d_38", "config": {"kernel_regularizer": null, "kernel_initializer": {"config": {"seed": null, "distribution": "uniform", "scale": 1.0, "mode": "fan_avg"}, "class_name": "VarianceScaling"}, "strides": [1, 1], "bias_regularizer": null, "filters": 128, "bias_initializer": {"config": {}, "class_name": "Zeros"}, "use_bias": false, "activation": "linear", "kernel_constraint": null, "name": "conv2d_38", "data_format": "channels_last", "trainable": false, "bias_constraint": null, "activity_regularizer": null, "padding": "same", "kernel_size": [7, 1], "dilation_rate": [1, 1]}, "class_name": "Conv2D", "inbound_nodes": [[["activation_37", 0, 0, {}]]]}, {"name": "batch_normalization_33", "config": {"beta_regularizer": null, "gamma_regularizer": null, "center": true, "scale": false, "gamma_constraint": null, "epsilon": 0.001, "axis": 3, "beta_constraint": null, "moving_mean_initializer": {"config": {}, "class_name": "Zeros"}, "name": "batch_normalization_33", "trainable": false, "moving_variance_initializer": {"config": {}, "class_name": "Ones"}, "momentum": 0.99, "gamma_initializer": {"config": {}, "class_name": "Ones"}, "beta_initializer": {"config": {}, "class_name": "Zeros"}}, "class_name": "BatchNormalization", "inbound_nodes": [[["conv2d_33", 0, 0, {}]]]}, {"name": "batch_normalization_38", "config": {"beta_regularizer": null, "gamma_regularizer": null, "center": true, "scale": false, "gamma_constraint": null, "epsilon": 0.001, "axis": 3, "beta_constraint": null, "moving_mean_initializer": {"config": {}, "class_name": "Zeros"}, "name": "batch_normalization_38", "trainable": false, "moving_variance_initializer": {"config": {}, "class_name": "Ones"}, "momentum": 0.99, "gamma_initializer": {"config": {}, "class_name": "Ones"}, "beta_initializer": {"config": {}, "class_name": "Zeros"}}, "class_name": "BatchNormalization", "inbound_nodes": [[["conv2d_38", 0, 0, {}]]]}, {"name": "activation_33", "config": {"name": "activation_33", "activation": "relu", "trainable": false}, "class_name": "Activation", "inbound_nodes": [[["batch_normalization_33", 0, 0, {}]]]}, {"name": "activation_38", "config": {"name": "activation_38", "activation": "relu", "trainable": false}, "class_name": "Activation", "inbound_nodes": [[["batch_normalization_38", 0, 0, {}]]]}, {"name": "average_pooling2d_4", "config": {"name": "average_pooling2d_4", "data_format": "channels_last", "strides": [1, 1], "trainable": false, "pool_size": [3, 3], "padding": "same"}, "class_name": "AveragePooling2D", "inbound_nodes": [[["mixed3", 0, 0, {}]]]}, {"name": "conv2d_31", "config": {"kernel_regularizer": null, "kernel_initializer": {"config": {"seed": null, "distribution": "uniform", "scale": 1.0, "mode": "fan_avg"}, "class_name": "VarianceScaling"}, "strides": [1, 1], "bias_regularizer": null, "filters": 192, "bias_initializer": {"config": {}, "class_name": "Zeros"}, "use_bias": false, "activation": "linear", "kernel_constraint": null, "name": "conv2d_31", "data_format": "channels_last", "trainable": false, "bias_constraint": null, "activity_regularizer": null, "padding": "same", "kernel_size": [1, 1], "dilation_rate": [1, 1]}, "class_name": "Conv2D", "inbound_nodes": [[["mixed3", 0, 0, {}]]]}, {"name": "conv2d_34", "config": {"kernel_regularizer": null, "kernel_initializer": {"config": {"seed": null, "distribution": "uniform", "scale": 1.0, "mode": "fan_avg"}, "class_name": "VarianceScaling"}, "strides": [1, 1], "bias_regularizer": null, "filters": 192, "bias_initializer": {"config": {}, "class_name": "Zeros"}, "use_bias": false, "activation": "linear", "kernel_constraint": null, "name": "conv2d_34", "data_format": "channels_last", "trainable": false, "bias_constraint": null, "activity_regularizer": null, "padding": "same", "kernel_size": [7, 1], "dilation_rate": [1, 1]}, "class_name": "Conv2D", "inbound_nodes": [[["activation_33", 0, 0, {}]]]}, {"name": "conv2d_39", "config": {"kernel_regularizer": null, "kernel_initializer": {"config": {"seed": null, "distribution": "uniform", "scale": 1.0, "mode": "fan_avg"}, "class_name": "VarianceScaling"}, "strides": [1, 1], "bias_regularizer": null, "filters": 192, "bias_initializer": {"config": {}, "class_name": "Zeros"}, "use_bias": false, "activation": "linear", "kernel_constraint": null, "name": "conv2d_39", "data_format": "channels_last", "trainable": false, "bias_constraint": null, "activity_regularizer": null, "padding": "same", "kernel_size": [1, 7], "dilation_rate": [1, 1]}, "class_name": "Conv2D", "inbound_nodes": [[["activation_38", 0, 0, {}]]]}, {"name": "conv2d_40", "config": {"kernel_regularizer": null, "kernel_initializer": {"config": {"seed": null, "distribution": "uniform", "scale": 1.0, "mode": "fan_avg"}, "class_name": "VarianceScaling"}, "strides": [1, 1], "bias_regularizer": null, "filters": 192, "bias_initializer": {"config": {}, "class_name": "Zeros"}, "use_bias": false, "activation": "linear", "kernel_constraint": null, "name": "conv2d_40", "data_format": "channels_last", "trainable": false, "bias_constraint": null, "activity_regularizer": null, "padding": "same", "kernel_size": [1, 1], "dilation_rate": [1, 1]}, "class_name": "Conv2D", "inbound_nodes": [[["average_pooling2d_4", 0, 0, {}]]]}, {"name": "batch_normalization_31", "config": {"beta_regularizer": null, "gamma_regularizer": null, "center": true, "scale": false, "gamma_constraint": null, "epsilon": 0.001, "axis": 3, "beta_constraint": null, "moving_mean_initializer": {"config": {}, "class_name": "Zeros"}, "name": "batch_normalization_31", "trainable": false, "moving_variance_initializer": {"config": {}, "class_name": "Ones"}, "momentum": 0.99, "gamma_initializer": {"config": {}, "class_name": "Ones"}, "beta_initializer": {"config": {}, "class_name": "Zeros"}}, "class_name": "BatchNormalization", "inbound_nodes": [[["conv2d_31", 0, 0, {}]]]}, {"name": "batch_normalization_34", "config": {"beta_regularizer": null, "gamma_regularizer": null, "center": true, "scale": false, "gamma_constraint": null, "epsilon": 0.001, "axis": 3, "beta_constraint": null, "moving_mean_initializer": {"config": {}, "class_name": "Zeros"}, "name": "batch_normalization_34", "trainable": false, "moving_variance_initializer": {"config": {}, "class_name": "Ones"}, "momentum": 0.99, "gamma_initializer": {"config": {}, "class_name": "Ones"}, "beta_initializer": {"config": {}, "class_name": "Zeros"}}, "class_name": "BatchNormalization", "inbound_nodes": [[["conv2d_34", 0, 0, {}]]]}, {"name": "batch_normalization_39", "config": {"beta_regularizer": null, "gamma_regularizer": null, "center": true, "scale": false, "gamma_constraint": null, "epsilon": 0.001, "axis": 3, "beta_constraint": null, "moving_mean_initializer": {"config": {}, "class_name": "Zeros"}, "name": "batch_normalization_39", "trainable": false, "moving_variance_initializer": {"config": {}, "class_name": "Ones"}, "momentum": 0.99, "gamma_initializer": {"config": {}, "class_name": "Ones"}, "beta_initializer": {"config": {}, "class_name": "Zeros"}}, "class_name": "BatchNormalization", "inbound_nodes": [[["conv2d_39", 0, 0, {}]]]}, {"name": "batch_normalization_40", "config": {"beta_regularizer": null, "gamma_regularizer": null, "center": true, "scale": false, "gamma_constraint": null, "epsilon": 0.001, "axis": 3, "beta_constraint": null, "moving_mean_initializer": {"config": {}, "class_name": "Zeros"}, "name": "batch_normalization_40", "trainable": false, "moving_variance_initializer": {"config": {}, "class_name": "Ones"}, "momentum": 0.99, "gamma_initializer": {"config": {}, "class_name": "Ones"}, "beta_initializer": {"config": {}, "class_name": "Zeros"}}, "class_name": "BatchNormalization", "inbound_nodes": [[["conv2d_40", 0, 0, {}]]]}, {"name": "activation_31", "config": {"name": "activation_31", "activation": "relu", "trainable": false}, "class_name": "Activation", "inbound_nodes": [[["batch_normalization_31", 0, 0, {}]]]}, {"name": "activation_34", "config": {"name": "activation_34", "activation": "relu", "trainable": false}, "class_name": "Activation", "inbound_nodes": [[["batch_normalization_34", 0, 0, {}]]]}, {"name": "activation_39", "config": {"name": "activation_39", "activation": "relu", "trainable": false}, "class_name": "Activation", "inbound_nodes": [[["batch_normalization_39", 0, 0, {}]]]}, {"name": "activation_40", "config": {"name": "activation_40", "activation": "relu", "trainable": false}, "class_name": "Activation", "inbound_nodes": [[["batch_normalization_40", 0, 0, {}]]]}, {"name": "mixed4", "config": {"name": "mixed4", "trainable": false, "axis": 3}, "class_name": "Concatenate", "inbound_nodes": [[["activation_31", 0, 0, {}], ["activation_34", 0, 0, {}], ["activation_39", 0, 0, {}], ["activation_40", 0, 0, {}]]]}, {"name": "conv2d_45", "config": {"kernel_regularizer": null, "kernel_initializer": {"config": {"seed": null, "distribution": "uniform", "scale": 1.0, "mode": "fan_avg"}, "class_name": "VarianceScaling"}, "strides": [1, 1], "bias_regularizer": null, "filters": 160, "bias_initializer": {"config": {}, "class_name": "Zeros"}, "use_bias": false, "activation": "linear", "kernel_constraint": null, "name": "conv2d_45", "data_format": "channels_last", "trainable": false, "bias_constraint": null, "activity_regularizer": null, "padding": "same", "kernel_size": [1, 1], "dilation_rate": [1, 1]}, "class_name": "Conv2D", "inbound_nodes": [[["mixed4", 0, 0, {}]]]}, {"name": "batch_normalization_45", "config": {"beta_regularizer": null, "gamma_regularizer": null, "center": true, "scale": false, "gamma_constraint": null, "epsilon": 0.001, "axis": 3, "beta_constraint": null, "moving_mean_initializer": {"config": {}, "class_name": "Zeros"}, "name": "batch_normalization_45", "trainable": false, "moving_variance_initializer": {"config": {}, "class_name": "Ones"}, "momentum": 0.99, "gamma_initializer": {"config": {}, "class_name": "Ones"}, "beta_initializer": {"config": {}, "class_name": "Zeros"}}, "class_name": "BatchNormalization", "inbound_nodes": [[["conv2d_45", 0, 0, {}]]]}, {"name": "activation_45", "config": {"name": "activation_45", "activation": "relu", "trainable": false}, "class_name": "Activation", "inbound_nodes": [[["batch_normalization_45", 0, 0, {}]]]}, {"name": "conv2d_46", "config": {"kernel_regularizer": null, "kernel_initializer": {"config": {"seed": null, "distribution": "uniform", "scale": 1.0, "mode": "fan_avg"}, "class_name": "VarianceScaling"}, "strides": [1, 1], "bias_regularizer": null, "filters": 160, "bias_initializer": {"config": {}, "class_name": "Zeros"}, "use_bias": false, "activation": "linear", "kernel_constraint": null, "name": "conv2d_46", "data_format": "channels_last", "trainable": false, "bias_constraint": null, "activity_regularizer": null, "padding": "same", "kernel_size": [7, 1], "dilation_rate": [1, 1]}, "class_name": "Conv2D", "inbound_nodes": [[["activation_45", 0, 0, {}]]]}, {"name": "batch_normalization_46", "config": {"beta_regularizer": null, "gamma_regularizer": null, "center": true, "scale": false, "gamma_constraint": null, "epsilon": 0.001, "axis": 3, "beta_constraint": null, "moving_mean_initializer": {"config": {}, "class_name": "Zeros"}, "name": "batch_normalization_46", "trainable": false, "moving_variance_initializer": {"config": {}, "class_name": "Ones"}, "momentum": 0.99, "gamma_initializer": {"config": {}, "class_name": "Ones"}, "beta_initializer": {"config": {}, "class_name": "Zeros"}}, "class_name": "BatchNormalization", "inbound_nodes": [[["conv2d_46", 0, 0, {}]]]}, {"name": "activation_46", "config": {"name": "activation_46", "activation": "relu", "trainable": false}, "class_name": "Activation", "inbound_nodes": [[["batch_normalization_46", 0, 0, {}]]]}, {"name": "conv2d_42", "config": {"kernel_regularizer": null, "kernel_initializer": {"config": {"seed": null, "distribution": "uniform", "scale": 1.0, "mode": "fan_avg"}, "class_name": "VarianceScaling"}, "strides": [1, 1], "bias_regularizer": null, "filters": 160, "bias_initializer": {"config": {}, "class_name": "Zeros"}, "use_bias": false, "activation": "linear", "kernel_constraint": null, "name": "conv2d_42", "data_format": "channels_last", "trainable": false, "bias_constraint": null, "activity_regularizer": null, "padding": "same", "kernel_size": [1, 1], "dilation_rate": [1, 1]}, "class_name": "Conv2D", "inbound_nodes": [[["mixed4", 0, 0, {}]]]}, {"name": "conv2d_47", "config": {"kernel_regularizer": null, "kernel_initializer": {"config": {"seed": null, "distribution": "uniform", "scale": 1.0, "mode": "fan_avg"}, "class_name": "VarianceScaling"}, "strides": [1, 1], "bias_regularizer": null, "filters": 160, "bias_initializer": {"config": {}, "class_name": "Zeros"}, "use_bias": false, "activation": "linear", "kernel_constraint": null, "name": "conv2d_47", "data_format": "channels_last", "trainable": false, "bias_constraint": null, "activity_regularizer": null, "padding": "same", "kernel_size": [1, 7], "dilation_rate": [1, 1]}, "class_name": "Conv2D", "inbound_nodes": [[["activation_46", 0, 0, {}]]]}, {"name": "batch_normalization_42", "config": {"beta_regularizer": null, "gamma_regularizer": null, "center": true, "scale": false, "gamma_constraint": null, "epsilon": 0.001, "axis": 3, "beta_constraint": null, "moving_mean_initializer": {"config": {}, "class_name": "Zeros"}, "name": "batch_normalization_42", "trainable": false, "moving_variance_initializer": {"config": {}, "class_name": "Ones"}, "momentum": 0.99, "gamma_initializer": {"config": {}, "class_name": "Ones"}, "beta_initializer": {"config": {}, "class_name": "Zeros"}}, "class_name": "BatchNormalization", "inbound_nodes": [[["conv2d_42", 0, 0, {}]]]}, {"name": "batch_normalization_47", "config": {"beta_regularizer": null, "gamma_regularizer": null, "center": true, "scale": false, "gamma_constraint": null, "epsilon": 0.001, "axis": 3, "beta_constraint": null, "moving_mean_initializer": {"config": {}, "class_name": "Zeros"}, "name": "batch_normalization_47", "trainable": false, "moving_variance_initializer": {"config": {}, "class_name": "Ones"}, "momentum": 0.99, "gamma_initializer": {"config": {}, "class_name": "Ones"}, "beta_initializer": {"config": {}, "class_name": "Zeros"}}, "class_name": "BatchNormalization", "inbound_nodes": [[["conv2d_47", 0, 0, {}]]]}, {"name": "activation_42", "config": {"name": "activation_42", "activation": "relu", "trainable": false}, "class_name": "Activation", "inbound_nodes": [[["batch_normalization_42", 0, 0, {}]]]}, {"name": "activation_47", "config": {"name": "activation_47", "activation": "relu", "trainable": false}, "class_name": "Activation", "inbound_nodes": [[["batch_normalization_47", 0, 0, {}]]]}, {"name": "conv2d_43", "config": {"kernel_regularizer": null, "kernel_initializer": {"config": {"seed": null, "distribution": "uniform", "scale": 1.0, "mode": "fan_avg"}, "class_name": "VarianceScaling"}, "strides": [1, 1], "bias_regularizer": null, "filters": 160, "bias_initializer": {"config": {}, "class_name": "Zeros"}, "use_bias": false, "activation": "linear", "kernel_constraint": null, "name": "conv2d_43", "data_format": "channels_last", "trainable": false, "bias_constraint": null, "activity_regularizer": null, "padding": "same", "kernel_size": [1, 7], "dilation_rate": [1, 1]}, "class_name": "Conv2D", "inbound_nodes": [[["activation_42", 0, 0, {}]]]}, {"name": "conv2d_48", "config": {"kernel_regularizer": null, "kernel_initializer": {"config": {"seed": null, "distribution": "uniform", "scale": 1.0, "mode": "fan_avg"}, "class_name": "VarianceScaling"}, "strides": [1, 1], "bias_regularizer": null, "filters": 160, "bias_initializer": {"config": {}, "class_name": "Zeros"}, "use_bias": false, "activation": "linear", "kernel_constraint": null, "name": "conv2d_48", "data_format": "channels_last", "trainable": false, "bias_constraint": null, "activity_regularizer": null, "padding": "same", "kernel_size": [7, 1], "dilation_rate": [1, 1]}, "class_name": "Conv2D", "inbound_nodes": [[["activation_47", 0, 0, {}]]]}, {"name": "batch_normalization_43", "config": {"beta_regularizer": null, "gamma_regularizer": null, "center": true, "scale": false, "gamma_constraint": null, "epsilon": 0.001, "axis": 3, "beta_constraint": null, "moving_mean_initializer": {"config": {}, "class_name": "Zeros"}, "name": "batch_normalization_43", "trainable": false, "moving_variance_initializer": {"config": {}, "class_name": "Ones"}, "momentum": 0.99, "gamma_initializer": {"config": {}, "class_name": "Ones"}, "beta_initializer": {"config": {}, "class_name": "Zeros"}}, "class_name": "BatchNormalization", "inbound_nodes": [[["conv2d_43", 0, 0, {}]]]}, {"name": "batch_normalization_48", "config": {"beta_regularizer": null, "gamma_regularizer": null, "center": true, "scale": false, "gamma_constraint": null, "epsilon": 0.001, "axis": 3, "beta_constraint": null, "moving_mean_initializer": {"config": {}, "class_name": "Zeros"}, "name": "batch_normalization_48", "trainable": false, "moving_variance_initializer": {"config": {}, "class_name": "Ones"}, "momentum": 0.99, "gamma_initializer": {"config": {}, "class_name": "Ones"}, "beta_initializer": {"config": {}, "class_name": "Zeros"}}, "class_name": "BatchNormalization", "inbound_nodes": [[["conv2d_48", 0, 0, {}]]]}, {"name": "activation_43", "config": {"name": "activation_43", "activation": "relu", "trainable": false}, "class_name": "Activation", "inbound_nodes": [[["batch_normalization_43", 0, 0, {}]]]}, {"name": "activation_48", "config": {"name": "activation_48", "activation": "relu", "trainable": false}, "class_name": "Activation", "inbound_nodes": [[["batch_normalization_48", 0, 0, {}]]]}, {"name": "average_pooling2d_5", "config": {"name": "average_pooling2d_5", "data_format": "channels_last", "strides": [1, 1], "trainable": false, "pool_size": [3, 3], "padding": "same"}, "class_name": "AveragePooling2D", "inbound_nodes": [[["mixed4", 0, 0, {}]]]}, {"name": "conv2d_41", "config": {"kernel_regularizer": null, "kernel_initializer": {"config": {"seed": null, "distribution": "uniform", "scale": 1.0, "mode": "fan_avg"}, "class_name": "VarianceScaling"}, "strides": [1, 1], "bias_regularizer": null, "filters": 192, "bias_initializer": {"config": {}, "class_name": "Zeros"}, "use_bias": false, "activation": "linear", "kernel_constraint": null, "name": "conv2d_41", "data_format": "channels_last", "trainable": false, "bias_constraint": null, "activity_regularizer": null, "padding": "same", "kernel_size": [1, 1], "dilation_rate": [1, 1]}, "class_name": "Conv2D", "inbound_nodes": [[["mixed4", 0, 0, {}]]]}, {"name": "conv2d_44", "config": {"kernel_regularizer": null, "kernel_initializer": {"config": {"seed": null, "distribution": "uniform", "scale": 1.0, "mode": "fan_avg"}, "class_name": "VarianceScaling"}, "strides": [1, 1], "bias_regularizer": null, "filters": 192, "bias_initializer": {"config": {}, "class_name": "Zeros"}, "use_bias": false, "activation": "linear", "kernel_constraint": null, "name": "conv2d_44", "data_format": "channels_last", "trainable": false, "bias_constraint": null, "activity_regularizer": null, "padding": "same", "kernel_size": [7, 1], "dilation_rate": [1, 1]}, "class_name": "Conv2D", "inbound_nodes": [[["activation_43", 0, 0, {}]]]}, {"name": "conv2d_49", "config": {"kernel_regularizer": null, "kernel_initializer": {"config": {"seed": null, "distribution": "uniform", "scale": 1.0, "mode": "fan_avg"}, "class_name": "VarianceScaling"}, "strides": [1, 1], "bias_regularizer": null, "filters": 192, "bias_initializer": {"config": {}, "class_name": "Zeros"}, "use_bias": false, "activation": "linear", "kernel_constraint": null, "name": "conv2d_49", "data_format": "channels_last", "trainable": false, "bias_constraint": null, "activity_regularizer": null, "padding": "same", "kernel_size": [1, 7], "dilation_rate": [1, 1]}, "class_name": "Conv2D", "inbound_nodes": [[["activation_48", 0, 0, {}]]]}, {"name": "conv2d_50", "config": {"kernel_regularizer": null, "kernel_initializer": {"config": {"seed": null, "distribution": "uniform", "scale": 1.0, "mode": "fan_avg"}, "class_name": "VarianceScaling"}, "strides": [1, 1], "bias_regularizer": null, "filters": 192, "bias_initializer": {"config": {}, "class_name": "Zeros"}, "use_bias": false, "activation": "linear", "kernel_constraint": null, "name": "conv2d_50", "data_format": "channels_last", "trainable": false, "bias_constraint": null, "activity_regularizer": null, "padding": "same", "kernel_size": [1, 1], "dilation_rate": [1, 1]}, "class_name": "Conv2D", "inbound_nodes": [[["average_pooling2d_5", 0, 0, {}]]]}, {"name": "batch_normalization_41", "config": {"beta_regularizer": null, "gamma_regularizer": null, "center": true, "scale": false, "gamma_constraint": null, "epsilon": 0.001, "axis": 3, "beta_constraint": null, "moving_mean_initializer": {"config": {}, "class_name": "Zeros"}, "name": "batch_normalization_41", "trainable": false, "moving_variance_initializer": {"config": {}, "class_name": "Ones"}, "momentum": 0.99, "gamma_initializer": {"config": {}, "class_name": "Ones"}, "beta_initializer": {"config": {}, "class_name": "Zeros"}}, "class_name": "BatchNormalization", "inbound_nodes": [[["conv2d_41", 0, 0, {}]]]}, {"name": "batch_normalization_44", "config": {"beta_regularizer": null, "gamma_regularizer": null, "center": true, "scale": false, "gamma_constraint": null, "epsilon": 0.001, "axis": 3, "beta_constraint": null, "moving_mean_initializer": {"config": {}, "class_name": "Zeros"}, "name": "batch_normalization_44", "trainable": false, "moving_variance_initializer": {"config": {}, "class_name": "Ones"}, "momentum": 0.99, "gamma_initializer": {"config": {}, "class_name": "Ones"}, "beta_initializer": {"config": {}, "class_name": "Zeros"}}, "class_name": "BatchNormalization", "inbound_nodes": [[["conv2d_44", 0, 0, {}]]]}, {"name": "batch_normalization_49", "config": {"beta_regularizer": null, "gamma_regularizer": null, "center": true, "scale": false, "gamma_constraint": null, "epsilon": 0.001, "axis": 3, "beta_constraint": null, "moving_mean_initializer": {"config": {}, "class_name": "Zeros"}, "name": "batch_normalization_49", "trainable": false, "moving_variance_initializer": {"config": {}, "class_name": "Ones"}, "momentum": 0.99, "gamma_initializer": {"config": {}, "class_name": "Ones"}, "beta_initializer": {"config": {}, "class_name": "Zeros"}}, "class_name": "BatchNormalization", "inbound_nodes": [[["conv2d_49", 0, 0, {}]]]}, {"name": "batch_normalization_50", "config": {"beta_regularizer": null, "gamma_regularizer": null, "center": true, "scale": false, "gamma_constraint": null, "epsilon": 0.001, "axis": 3, "beta_constraint": null, "moving_mean_initializer": {"config": {}, "class_name": "Zeros"}, "name": "batch_normalization_50", "trainable": false, "moving_variance_initializer": {"config": {}, "class_name": "Ones"}, "momentum": 0.99, "gamma_initializer": {"config": {}, "class_name": "Ones"}, "beta_initializer": {"config": {}, "class_name": "Zeros"}}, "class_name": "BatchNormalization", "inbound_nodes": [[["conv2d_50", 0, 0, {}]]]}, {"name": "activation_41", "config": {"name": "activation_41", "activation": "relu", "trainable": false}, "class_name": "Activation", "inbound_nodes": [[["batch_normalization_41", 0, 0, {}]]]}, {"name": "activation_44", "config": {"name": "activation_44", "activation": "relu", "trainable": false}, "class_name": "Activation", "inbound_nodes": [[["batch_normalization_44", 0, 0, {}]]]}, {"name": "activation_49", "config": {"name": "activation_49", "activation": "relu", "trainable": false}, "class_name": "Activation", "inbound_nodes": [[["batch_normalization_49", 0, 0, {}]]]}, {"name": "activation_50", "config": {"name": "activation_50", "activation": "relu", "trainable": false}, "class_name": "Activation", "inbound_nodes": [[["batch_normalization_50", 0, 0, {}]]]}, {"name": "mixed5", "config": {"name": "mixed5", "trainable": false, "axis": 3}, "class_name": "Concatenate", "inbound_nodes": [[["activation_41", 0, 0, {}], ["activation_44", 0, 0, {}], ["activation_49", 0, 0, {}], ["activation_50", 0, 0, {}]]]}, {"name": "conv2d_55", "config": {"kernel_regularizer": null, "kernel_initializer": {"config": {"seed": null, "distribution": "uniform", "scale": 1.0, "mode": "fan_avg"}, "class_name": "VarianceScaling"}, "strides": [1, 1], "bias_regularizer": null, "filters": 160, "bias_initializer": {"config": {}, "class_name": "Zeros"}, "use_bias": false, "activation": "linear", "kernel_constraint": null, "name": "conv2d_55", "data_format": "channels_last", "trainable": false, "bias_constraint": null, "activity_regularizer": null, "padding": "same", "kernel_size": [1, 1], "dilation_rate": [1, 1]}, "class_name": "Conv2D", "inbound_nodes": [[["mixed5", 0, 0, {}]]]}, {"name": "batch_normalization_55", "config": {"beta_regularizer": null, "gamma_regularizer": null, "center": true, "scale": false, "gamma_constraint": null, "epsilon": 0.001, "axis": 3, "beta_constraint": null, "moving_mean_initializer": {"config": {}, "class_name": "Zeros"}, "name": "batch_normalization_55", "trainable": false, "moving_variance_initializer": {"config": {}, "class_name": "Ones"}, "momentum": 0.99, "gamma_initializer": {"config": {}, "class_name": "Ones"}, "beta_initializer": {"config": {}, "class_name": "Zeros"}}, "class_name": "BatchNormalization", "inbound_nodes": [[["conv2d_55", 0, 0, {}]]]}, {"name": "activation_55", "config": {"name": "activation_55", "activation": "relu", "trainable": false}, "class_name": "Activation", "inbound_nodes": [[["batch_normalization_55", 0, 0, {}]]]}, {"name": "conv2d_56", "config": {"kernel_regularizer": null, "kernel_initializer": {"config": {"seed": null, "distribution": "uniform", "scale": 1.0, "mode": "fan_avg"}, "class_name": "VarianceScaling"}, "strides": [1, 1], "bias_regularizer": null, "filters": 160, "bias_initializer": {"config": {}, "class_name": "Zeros"}, "use_bias": false, "activation": "linear", "kernel_constraint": null, "name": "conv2d_56", "data_format": "channels_last", "trainable": true, "bias_constraint": null, "activity_regularizer": null, "padding": "same", "kernel_size": [7, 1], "dilation_rate": [1, 1]}, "class_name": "Conv2D", "inbound_nodes": [[["activation_55", 0, 0, {}]]]}, {"name": "batch_normalization_56", "config": {"beta_regularizer": null, "gamma_regularizer": null, "center": true, "scale": false, "gamma_constraint": null, "epsilon": 0.001, "axis": 3, "beta_constraint": null, "moving_mean_initializer": {"config": {}, "class_name": "Zeros"}, "name": "batch_normalization_56", "trainable": true, "moving_variance_initializer": {"config": {}, "class_name": "Ones"}, "momentum": 0.99, "gamma_initializer": {"config": {}, "class_name": "Ones"}, "beta_initializer": {"config": {}, "class_name": "Zeros"}}, "class_name": "BatchNormalization", "inbound_nodes": [[["conv2d_56", 0, 0, {}]]]}, {"name": "activation_56", "config": {"name": "activation_56", "activation": "relu", "trainable": true}, "class_name": "Activation", "inbound_nodes": [[["batch_normalization_56", 0, 0, {}]]]}, {"name": "conv2d_52", "config": {"kernel_regularizer": null, "kernel_initializer": {"config": {"seed": null, "distribution": "uniform", "scale": 1.0, "mode": "fan_avg"}, "class_name": "VarianceScaling"}, "strides": [1, 1], "bias_regularizer": null, "filters": 160, "bias_initializer": {"config": {}, "class_name": "Zeros"}, "use_bias": false, "activation": "linear", "kernel_constraint": null, "name": "conv2d_52", "data_format": "channels_last", "trainable": true, "bias_constraint": null, "activity_regularizer": null, "padding": "same", "kernel_size": [1, 1], "dilation_rate": [1, 1]}, "class_name": "Conv2D", "inbound_nodes": [[["mixed5", 0, 0, {}]]]}, {"name": "conv2d_57", "config": {"kernel_regularizer": null, "kernel_initializer": {"config": {"seed": null, "distribution": "uniform", "scale": 1.0, "mode": "fan_avg"}, "class_name": "VarianceScaling"}, "strides": [1, 1], "bias_regularizer": null, "filters": 160, "bias_initializer": {"config": {}, "class_name": "Zeros"}, "use_bias": false, "activation": "linear", "kernel_constraint": null, "name": "conv2d_57", "data_format": "channels_last", "trainable": true, "bias_constraint": null, "activity_regularizer": null, "padding": "same", "kernel_size": [1, 7], "dilation_rate": [1, 1]}, "class_name": "Conv2D", "inbound_nodes": [[["activation_56", 0, 0, {}]]]}, {"name": "batch_normalization_52", "config": {"beta_regularizer": null, "gamma_regularizer": null, "center": true, "scale": false, "gamma_constraint": null, "epsilon": 0.001, "axis": 3, "beta_constraint": null, "moving_mean_initializer": {"config": {}, "class_name": "Zeros"}, "name": "batch_normalization_52", "trainable": true, "moving_variance_initializer": {"config": {}, "class_name": "Ones"}, "momentum": 0.99, "gamma_initializer": {"config": {}, "class_name": "Ones"}, "beta_initializer": {"config": {}, "class_name": "Zeros"}}, "class_name": "BatchNormalization", "inbound_nodes": [[["conv2d_52", 0, 0, {}]]]}, {"name": "batch_normalization_57", "config": {"beta_regularizer": null, "gamma_regularizer": null, "center": true, "scale": false, "gamma_constraint": null, "epsilon": 0.001, "axis": 3, "beta_constraint": null, "moving_mean_initializer": {"config": {}, "class_name": "Zeros"}, "name": "batch_normalization_57", "trainable": true, "moving_variance_initializer": {"config": {}, "class_name": "Ones"}, "momentum": 0.99, "gamma_initializer": {"config": {}, "class_name": "Ones"}, "beta_initializer": {"config": {}, "class_name": "Zeros"}}, "class_name": "BatchNormalization", "inbound_nodes": [[["conv2d_57", 0, 0, {}]]]}, {"name": "activation_52", "config": {"name": "activation_52", "activation": "relu", "trainable": true}, "class_name": "Activation", "inbound_nodes": [[["batch_normalization_52", 0, 0, {}]]]}, {"name": "activation_57", "config": {"name": "activation_57", "activation": "relu", "trainable": true}, "class_name": "Activation", "inbound_nodes": [[["batch_normalization_57", 0, 0, {}]]]}, {"name": "conv2d_53", "config": {"kernel_regularizer": null, "kernel_initializer": {"config": {"seed": null, "distribution": "uniform", "scale": 1.0, "mode": "fan_avg"}, "class_name": "VarianceScaling"}, "strides": [1, 1], "bias_regularizer": null, "filters": 160, "bias_initializer": {"config": {}, "class_name": "Zeros"}, "use_bias": false, "activation": "linear", "kernel_constraint": null, "name": "conv2d_53", "data_format": "channels_last", "trainable": true, "bias_constraint": null, "activity_regularizer": null, "padding": "same", "kernel_size": [1, 7], "dilation_rate": [1, 1]}, "class_name": "Conv2D", "inbound_nodes": [[["activation_52", 0, 0, {}]]]}, {"name": "conv2d_58", "config": {"kernel_regularizer": null, "kernel_initializer": {"config": {"seed": null, "distribution": "uniform", "scale": 1.0, "mode": "fan_avg"}, "class_name": "VarianceScaling"}, "strides": [1, 1], "bias_regularizer": null, "filters": 160, "bias_initializer": {"config": {}, "class_name": "Zeros"}, "use_bias": false, "activation": "linear", "kernel_constraint": null, "name": "conv2d_58", "data_format": "channels_last", "trainable": true, "bias_constraint": null, "activity_regularizer": null, "padding": "same", "kernel_size": [7, 1], "dilation_rate": [1, 1]}, "class_name": "Conv2D", "inbound_nodes": [[["activation_57", 0, 0, {}]]]}, {"name": "batch_normalization_53", "config": {"beta_regularizer": null, "gamma_regularizer": null, "center": true, "scale": false, "gamma_constraint": null, "epsilon": 0.001, "axis": 3, "beta_constraint": null, "moving_mean_initializer": {"config": {}, "class_name": "Zeros"}, "name": "batch_normalization_53", "trainable": true, "moving_variance_initializer": {"config": {}, "class_name": "Ones"}, "momentum": 0.99, "gamma_initializer": {"config": {}, "class_name": "Ones"}, "beta_initializer": {"config": {}, "class_name": "Zeros"}}, "class_name": "BatchNormalization", "inbound_nodes": [[["conv2d_53", 0, 0, {}]]]}, {"name": "batch_normalization_58", "config": {"beta_regularizer": null, "gamma_regularizer": null, "center": true, "scale": false, "gamma_constraint": null, "epsilon": 0.001, "axis": 3, "beta_constraint": null, "moving_mean_initializer": {"config": {}, "class_name": "Zeros"}, "name": "batch_normalization_58", "trainable": true, "moving_variance_initializer": {"config": {}, "class_name": "Ones"}, "momentum": 0.99, "gamma_initializer": {"config": {}, "class_name": "Ones"}, "beta_initializer": {"config": {}, "class_name": "Zeros"}}, "class_name": "BatchNormalization", "inbound_nodes": [[["conv2d_58", 0, 0, {}]]]}, {"name": "activation_53", "config": {"name": "activation_53", "activation": "relu", "trainable": true}, "class_name": "Activation", "inbound_nodes": [[["batch_normalization_53", 0, 0, {}]]]}, {"name": "activation_58", "config": {"name": "activation_58", "activation": "relu", "trainable": true}, "class_name": "Activation", "inbound_nodes": [[["batch_normalization_58", 0, 0, {}]]]}, {"name": "average_pooling2d_6", "config": {"name": "average_pooling2d_6", "data_format": "channels_last", "strides": [1, 1], "trainable": true, "pool_size": [3, 3], "padding": "same"}, "class_name": "AveragePooling2D", "inbound_nodes": [[["mixed5", 0, 0, {}]]]}, {"name": "conv2d_51", "config": {"kernel_regularizer": null, "kernel_initializer": {"config": {"seed": null, "distribution": "uniform", "scale": 1.0, "mode": "fan_avg"}, "class_name": "VarianceScaling"}, "strides": [1, 1], "bias_regularizer": null, "filters": 192, "bias_initializer": {"config": {}, "class_name": "Zeros"}, "use_bias": false, "activation": "linear", "kernel_constraint": null, "name": "conv2d_51", "data_format": "channels_last", "trainable": true, "bias_constraint": null, "activity_regularizer": null, "padding": "same", "kernel_size": [1, 1], "dilation_rate": [1, 1]}, "class_name": "Conv2D", "inbound_nodes": [[["mixed5", 0, 0, {}]]]}, {"name": "conv2d_54", "config": {"kernel_regularizer": null, "kernel_initializer": {"config": {"seed": null, "distribution": "uniform", "scale": 1.0, "mode": "fan_avg"}, "class_name": "VarianceScaling"}, "strides": [1, 1], "bias_regularizer": null, "filters": 192, "bias_initializer": {"config": {}, "class_name": "Zeros"}, "use_bias": false, "activation": "linear", "kernel_constraint": null, "name": "conv2d_54", "data_format": "channels_last", "trainable": true, "bias_constraint": null, "activity_regularizer": null, "padding": "same", "kernel_size": [7, 1], "dilation_rate": [1, 1]}, "class_name": "Conv2D", "inbound_nodes": [[["activation_53", 0, 0, {}]]]}, {"name": "conv2d_59", "config": {"kernel_regularizer": null, "kernel_initializer": {"config": {"seed": null, "distribution": "uniform", "scale": 1.0, "mode": "fan_avg"}, "class_name": "VarianceScaling"}, "strides": [1, 1], "bias_regularizer": null, "filters": 192, "bias_initializer": {"config": {}, "class_name": "Zeros"}, "use_bias": false, "activation": "linear", "kernel_constraint": null, "name": "conv2d_59", "data_format": "channels_last", "trainable": true, "bias_constraint": null, "activity_regularizer": null, "padding": "same", "kernel_size": [1, 7], "dilation_rate": [1, 1]}, "class_name": "Conv2D", "inbound_nodes": [[["activation_58", 0, 0, {}]]]}, {"name": "conv2d_60", "config": {"kernel_regularizer": null, "kernel_initializer": {"config": {"seed": null, "distribution": "uniform", "scale": 1.0, "mode": "fan_avg"}, "class_name": "VarianceScaling"}, "strides": [1, 1], "bias_regularizer": null, "filters": 192, "bias_initializer": {"config": {}, "class_name": "Zeros"}, "use_bias": false, "activation": "linear", "kernel_constraint": null, "name": "conv2d_60", "data_format": "channels_last", "trainable": true, "bias_constraint": null, "activity_regularizer": null, "padding": "same", "kernel_size": [1, 1], "dilation_rate": [1, 1]}, "class_name": "Conv2D", "inbound_nodes": [[["average_pooling2d_6", 0, 0, {}]]]}, {"name": "batch_normalization_51", "config": {"beta_regularizer": null, "gamma_regularizer": null, "center": true, "scale": false, "gamma_constraint": null, "epsilon": 0.001, "axis": 3, "beta_constraint": null, "moving_mean_initializer": {"config": {}, "class_name": "Zeros"}, "name": "batch_normalization_51", "trainable": true, "moving_variance_initializer": {"config": {}, "class_name": "Ones"}, "momentum": 0.99, "gamma_initializer": {"config": {}, "class_name": "Ones"}, "beta_initializer": {"config": {}, "class_name": "Zeros"}}, "class_name": "BatchNormalization", "inbound_nodes": [[["conv2d_51", 0, 0, {}]]]}, {"name": "batch_normalization_54", "config": {"beta_regularizer": null, "gamma_regularizer": null, "center": true, "scale": false, "gamma_constraint": null, "epsilon": 0.001, "axis": 3, "beta_constraint": null, "moving_mean_initializer": {"config": {}, "class_name": "Zeros"}, "name": "batch_normalization_54", "trainable": true, "moving_variance_initializer": {"config": {}, "class_name": "Ones"}, "momentum": 0.99, "gamma_initializer": {"config": {}, "class_name": "Ones"}, "beta_initializer": {"config": {}, "class_name": "Zeros"}}, "class_name": "BatchNormalization", "inbound_nodes": [[["conv2d_54", 0, 0, {}]]]}, {"name": "batch_normalization_59", "config": {"beta_regularizer": null, "gamma_regularizer": null, "center": true, "scale": false, "gamma_constraint": null, "epsilon": 0.001, "axis": 3, "beta_constraint": null, "moving_mean_initializer": {"config": {}, "class_name": "Zeros"}, "name": "batch_normalization_59", "trainable": true, "moving_variance_initializer": {"config": {}, "class_name": "Ones"}, "momentum": 0.99, "gamma_initializer": {"config": {}, "class_name": "Ones"}, "beta_initializer": {"config": {}, "class_name": "Zeros"}}, "class_name": "BatchNormalization", "inbound_nodes": [[["conv2d_59", 0, 0, {}]]]}, {"name": "batch_normalization_60", "config": {"beta_regularizer": null, "gamma_regularizer": null, "center": true, "scale": false, "gamma_constraint": null, "epsilon": 0.001, "axis": 3, "beta_constraint": null, "moving_mean_initializer": {"config": {}, "class_name": "Zeros"}, "name": "batch_normalization_60", "trainable": true, "moving_variance_initializer": {"config": {}, "class_name": "Ones"}, "momentum": 0.99, "gamma_initializer": {"config": {}, "class_name": "Ones"}, "beta_initializer": {"config": {}, "class_name": "Zeros"}}, "class_name": "BatchNormalization", "inbound_nodes": [[["conv2d_60", 0, 0, {}]]]}, {"name": "activation_51", "config": {"name": "activation_51", "activation": "relu", "trainable": true}, "class_name": "Activation", "inbound_nodes": [[["batch_normalization_51", 0, 0, {}]]]}, {"name": "activation_54", "config": {"name": "activation_54", "activation": "relu", "trainable": true}, "class_name": "Activation", "inbound_nodes": [[["batch_normalization_54", 0, 0, {}]]]}, {"name": "activation_59", "config": {"name": "activation_59", "activation": "relu", "trainable": true}, "class_name": "Activation", "inbound_nodes": [[["batch_normalization_59", 0, 0, {}]]]}, {"name": "activation_60", "config": {"name": "activation_60", "activation": "relu", "trainable": true}, "class_name": "Activation", "inbound_nodes": [[["batch_normalization_60", 0, 0, {}]]]}, {"name": "mixed6", "config": {"name": "mixed6", "trainable": true, "axis": 3}, "class_name": "Concatenate", "inbound_nodes": [[["activation_51", 0, 0, {}], ["activation_54", 0, 0, {}], ["activation_59", 0, 0, {}], ["activation_60", 0, 0, {}]]]}, {"name": "conv2d_65", "config": {"kernel_regularizer": null, "kernel_initializer": {"config": {"seed": null, "distribution": "uniform", "scale": 1.0, "mode": "fan_avg"}, "class_name": "VarianceScaling"}, "strides": [1, 1], "bias_regularizer": null, "filters": 192, "bias_initializer": {"config": {}, "class_name": "Zeros"}, "use_bias": false, "activation": "linear", "kernel_constraint": null, "name": "conv2d_65", "data_format": "channels_last", "trainable": true, "bias_constraint": null, "activity_regularizer": null, "padding": "same", "kernel_size": [1, 1], "dilation_rate": [1, 1]}, "class_name": "Conv2D", "inbound_nodes": [[["mixed6", 0, 0, {}]]]}, {"name": "batch_normalization_65", "config": {"beta_regularizer": null, "gamma_regularizer": null, "center": true, "scale": false, "gamma_constraint": null, "epsilon": 0.001, "axis": 3, "beta_constraint": null, "moving_mean_initializer": {"config": {}, "class_name": "Zeros"}, "name": "batch_normalization_65", "trainable": true, "moving_variance_initializer": {"config": {}, "class_name": "Ones"}, "momentum": 0.99, "gamma_initializer": {"config": {}, "class_name": "Ones"}, "beta_initializer": {"config": {}, "class_name": "Zeros"}}, "class_name": "BatchNormalization", "inbound_nodes": [[["conv2d_65", 0, 0, {}]]]}, {"name": "activation_65", "config": {"name": "activation_65", "activation": "relu", "trainable": true}, "class_name": "Activation", "inbound_nodes": [[["batch_normalization_65", 0, 0, {}]]]}, {"name": "conv2d_66", "config": {"kernel_regularizer": null, "kernel_initializer": {"config": {"seed": null, "distribution": "uniform", "scale": 1.0, "mode": "fan_avg"}, "class_name": "VarianceScaling"}, "strides": [1, 1], "bias_regularizer": null, "filters": 192, "bias_initializer": {"config": {}, "class_name": "Zeros"}, "use_bias": false, "activation": "linear", "kernel_constraint": null, "name": "conv2d_66", "data_format": "channels_last", "trainable": true, "bias_constraint": null, "activity_regularizer": null, "padding": "same", "kernel_size": [7, 1], "dilation_rate": [1, 1]}, "class_name": "Conv2D", "inbound_nodes": [[["activation_65", 0, 0, {}]]]}, {"name": "batch_normalization_66", "config": {"beta_regularizer": null, "gamma_regularizer": null, "center": true, "scale": false, "gamma_constraint": null, "epsilon": 0.001, "axis": 3, "beta_constraint": null, "moving_mean_initializer": {"config": {}, "class_name": "Zeros"}, "name": "batch_normalization_66", "trainable": true, "moving_variance_initializer": {"config": {}, "class_name": "Ones"}, "momentum": 0.99, "gamma_initializer": {"config": {}, "class_name": "Ones"}, "beta_initializer": {"config": {}, "class_name": "Zeros"}}, "class_name": "BatchNormalization", "inbound_nodes": [[["conv2d_66", 0, 0, {}]]]}, {"name": "activation_66", "config": {"name": "activation_66", "activation": "relu", "trainable": true}, "class_name": "Activation", "inbound_nodes": [[["batch_normalization_66", 0, 0, {}]]]}, {"name": "conv2d_62", "config": {"kernel_regularizer": null, "kernel_initializer": {"config": {"seed": null, "distribution": "uniform", "scale": 1.0, "mode": "fan_avg"}, "class_name": "VarianceScaling"}, "strides": [1, 1], "bias_regularizer": null, "filters": 192, "bias_initializer": {"config": {}, "class_name": "Zeros"}, "use_bias": false, "activation": "linear", "kernel_constraint": null, "name": "conv2d_62", "data_format": "channels_last", "trainable": true, "bias_constraint": null, "activity_regularizer": null, "padding": "same", "kernel_size": [1, 1], "dilation_rate": [1, 1]}, "class_name": "Conv2D", "inbound_nodes": [[["mixed6", 0, 0, {}]]]}, {"name": "conv2d_67", "config": {"kernel_regularizer": null, "kernel_initializer": {"config": {"seed": null, "distribution": "uniform", "scale": 1.0, "mode": "fan_avg"}, "class_name": "VarianceScaling"}, "strides": [1, 1], "bias_regularizer": null, "filters": 192, "bias_initializer": {"config": {}, "class_name": "Zeros"}, "use_bias": false, "activation": "linear", "kernel_constraint": null, "name": "conv2d_67", "data_format": "channels_last", "trainable": true, "bias_constraint": null, "activity_regularizer": null, "padding": "same", "kernel_size": [1, 7], "dilation_rate": [1, 1]}, "class_name": "Conv2D", "inbound_nodes": [[["activation_66", 0, 0, {}]]]}, {"name": "batch_normalization_62", "config": {"beta_regularizer": null, "gamma_regularizer": null, "center": true, "scale": false, "gamma_constraint": null, "epsilon": 0.001, "axis": 3, "beta_constraint": null, "moving_mean_initializer": {"config": {}, "class_name": "Zeros"}, "name": "batch_normalization_62", "trainable": true, "moving_variance_initializer": {"config": {}, "class_name": "Ones"}, "momentum": 0.99, "gamma_initializer": {"config": {}, "class_name": "Ones"}, "beta_initializer": {"config": {}, "class_name": "Zeros"}}, "class_name": "BatchNormalization", "inbound_nodes": [[["conv2d_62", 0, 0, {}]]]}, {"name": "batch_normalization_67", "config": {"beta_regularizer": null, "gamma_regularizer": null, "center": true, "scale": false, "gamma_constraint": null, "epsilon": 0.001, "axis": 3, "beta_constraint": null, "moving_mean_initializer": {"config": {}, "class_name": "Zeros"}, "name": "batch_normalization_67", "trainable": true, "moving_variance_initializer": {"config": {}, "class_name": "Ones"}, "momentum": 0.99, "gamma_initializer": {"config": {}, "class_name": "Ones"}, "beta_initializer": {"config": {}, "class_name": "Zeros"}}, "class_name": "BatchNormalization", "inbound_nodes": [[["conv2d_67", 0, 0, {}]]]}, {"name": "activation_62", "config": {"name": "activation_62", "activation": "relu", "trainable": true}, "class_name": "Activation", "inbound_nodes": [[["batch_normalization_62", 0, 0, {}]]]}, {"name": "activation_67", "config": {"name": "activation_67", "activation": "relu", "trainable": true}, "class_name": "Activation", "inbound_nodes": [[["batch_normalization_67", 0, 0, {}]]]}, {"name": "conv2d_63", "config": {"kernel_regularizer": null, "kernel_initializer": {"config": {"seed": null, "distribution": "uniform", "scale": 1.0, "mode": "fan_avg"}, "class_name": "VarianceScaling"}, "strides": [1, 1], "bias_regularizer": null, "filters": 192, "bias_initializer": {"config": {}, "class_name": "Zeros"}, "use_bias": false, "activation": "linear", "kernel_constraint": null, "name": "conv2d_63", "data_format": "channels_last", "trainable": true, "bias_constraint": null, "activity_regularizer": null, "padding": "same", "kernel_size": [1, 7], "dilation_rate": [1, 1]}, "class_name": "Conv2D", "inbound_nodes": [[["activation_62", 0, 0, {}]]]}, {"name": "conv2d_68", "config": {"kernel_regularizer": null, "kernel_initializer": {"config": {"seed": null, "distribution": "uniform", "scale": 1.0, "mode": "fan_avg"}, "class_name": "VarianceScaling"}, "strides": [1, 1], "bias_regularizer": null, "filters": 192, "bias_initializer": {"config": {}, "class_name": "Zeros"}, "use_bias": false, "activation": "linear", "kernel_constraint": null, "name": "conv2d_68", "data_format": "channels_last", "trainable": true, "bias_constraint": null, "activity_regularizer": null, "padding": "same", "kernel_size": [7, 1], "dilation_rate": [1, 1]}, "class_name": "Conv2D", "inbound_nodes": [[["activation_67", 0, 0, {}]]]}, {"name": "batch_normalization_63", "config": {"beta_regularizer": null, "gamma_regularizer": null, "center": true, "scale": false, "gamma_constraint": null, "epsilon": 0.001, "axis": 3, "beta_constraint": null, "moving_mean_initializer": {"config": {}, "class_name": "Zeros"}, "name": "batch_normalization_63", "trainable": true, "moving_variance_initializer": {"config": {}, "class_name": "Ones"}, "momentum": 0.99, "gamma_initializer": {"config": {}, "class_name": "Ones"}, "beta_initializer": {"config": {}, "class_name": "Zeros"}}, "class_name": "BatchNormalization", "inbound_nodes": [[["conv2d_63", 0, 0, {}]]]}, {"name": "batch_normalization_68", "config": {"beta_regularizer": null, "gamma_regularizer": null, "center": true, "scale": false, "gamma_constraint": null, "epsilon": 0.001, "axis": 3, "beta_constraint": null, "moving_mean_initializer": {"config": {}, "class_name": "Zeros"}, "name": "batch_normalization_68", "trainable": true, "moving_variance_initializer": {"config": {}, "class_name": "Ones"}, "momentum": 0.99, "gamma_initializer": {"config": {}, "class_name": "Ones"}, "beta_initializer": {"config": {}, "class_name": "Zeros"}}, "class_name": "BatchNormalization", "inbound_nodes": [[["conv2d_68", 0, 0, {}]]]}, {"name": "activation_63", "config": {"name": "activation_63", "activation": "relu", "trainable": true}, "class_name": "Activation", "inbound_nodes": [[["batch_normalization_63", 0, 0, {}]]]}, {"name": "activation_68", "config": {"name": "activation_68", "activation": "relu", "trainable": true}, "class_name": "Activation", "inbound_nodes": [[["batch_normalization_68", 0, 0, {}]]]}, {"name": "average_pooling2d_7", "config": {"name": "average_pooling2d_7", "data_format": "channels_last", "strides": [1, 1], "trainable": true, "pool_size": [3, 3], "padding": "same"}, "class_name": "AveragePooling2D", "inbound_nodes": [[["mixed6", 0, 0, {}]]]}, {"name": "conv2d_61", "config": {"kernel_regularizer": null, "kernel_initializer": {"config": {"seed": null, "distribution": "uniform", "scale": 1.0, "mode": "fan_avg"}, "class_name": "VarianceScaling"}, "strides": [1, 1], "bias_regularizer": null, "filters": 192, "bias_initializer": {"config": {}, "class_name": "Zeros"}, "use_bias": false, "activation": "linear", "kernel_constraint": null, "name": "conv2d_61", "data_format": "channels_last", "trainable": true, "bias_constraint": null, "activity_regularizer": null, "padding": "same", "kernel_size": [1, 1], "dilation_rate": [1, 1]}, "class_name": "Conv2D", "inbound_nodes": [[["mixed6", 0, 0, {}]]]}, {"name": "conv2d_64", "config": {"kernel_regularizer": null, "kernel_initializer": {"config": {"seed": null, "distribution": "uniform", "scale": 1.0, "mode": "fan_avg"}, "class_name": "VarianceScaling"}, "strides": [1, 1], "bias_regularizer": null, "filters": 192, "bias_initializer": {"config": {}, "class_name": "Zeros"}, "use_bias": false, "activation": "linear", "kernel_constraint": null, "name": "conv2d_64", "data_format": "channels_last", "trainable": true, "bias_constraint": null, "activity_regularizer": null, "padding": "same", "kernel_size": [7, 1], "dilation_rate": [1, 1]}, "class_name": "Conv2D", "inbound_nodes": [[["activation_63", 0, 0, {}]]]}, {"name": "conv2d_69", "config": {"kernel_regularizer": null, "kernel_initializer": {"config": {"seed": null, "distribution": "uniform", "scale": 1.0, "mode": "fan_avg"}, "class_name": "VarianceScaling"}, "strides": [1, 1], "bias_regularizer": null, "filters": 192, "bias_initializer": {"config": {}, "class_name": "Zeros"}, "use_bias": false, "activation": "linear", "kernel_constraint": null, "name": "conv2d_69", "data_format": "channels_last", "trainable": true, "bias_constraint": null, "activity_regularizer": null, "padding": "same", "kernel_size": [1, 7], "dilation_rate": [1, 1]}, "class_name": "Conv2D", "inbound_nodes": [[["activation_68", 0, 0, {}]]]}, {"name": "conv2d_70", "config": {"kernel_regularizer": null, "kernel_initializer": {"config": {"seed": null, "distribution": "uniform", "scale": 1.0, "mode": "fan_avg"}, "class_name": "VarianceScaling"}, "strides": [1, 1], "bias_regularizer": null, "filters": 192, "bias_initializer": {"config": {}, "class_name": "Zeros"}, "use_bias": false, "activation": "linear", "kernel_constraint": null, "name": "conv2d_70", "data_format": "channels_last", "trainable": true, "bias_constraint": null, "activity_regularizer": null, "padding": "same", "kernel_size": [1, 1], "dilation_rate": [1, 1]}, "class_name": "Conv2D", "inbound_nodes": [[["average_pooling2d_7", 0, 0, {}]]]}, {"name": "batch_normalization_61", "config": {"beta_regularizer": null, "gamma_regularizer": null, "center": true, "scale": false, "gamma_constraint": null, "epsilon": 0.001, "axis": 3, "beta_constraint": null, "moving_mean_initializer": {"config": {}, "class_name": "Zeros"}, "name": "batch_normalization_61", "trainable": true, "moving_variance_initializer": {"config": {}, "class_name": "Ones"}, "momentum": 0.99, "gamma_initializer": {"config": {}, "class_name": "Ones"}, "beta_initializer": {"config": {}, "class_name": "Zeros"}}, "class_name": "BatchNormalization", "inbound_nodes": [[["conv2d_61", 0, 0, {}]]]}, {"name": "batch_normalization_64", "config": {"beta_regularizer": null, "gamma_regularizer": null, "center": true, "scale": false, "gamma_constraint": null, "epsilon": 0.001, "axis": 3, "beta_constraint": null, "moving_mean_initializer": {"config": {}, "class_name": "Zeros"}, "name": "batch_normalization_64", "trainable": true, "moving_variance_initializer": {"config": {}, "class_name": "Ones"}, "momentum": 0.99, "gamma_initializer": {"config": {}, "class_name": "Ones"}, "beta_initializer": {"config": {}, "class_name": "Zeros"}}, "class_name": "BatchNormalization", "inbound_nodes": [[["conv2d_64", 0, 0, {}]]]}, {"name": "batch_normalization_69", "config": {"beta_regularizer": null, "gamma_regularizer": null, "center": true, "scale": false, "gamma_constraint": null, "epsilon": 0.001, "axis": 3, "beta_constraint": null, "moving_mean_initializer": {"config": {}, "class_name": "Zeros"}, "name": "batch_normalization_69", "trainable": true, "moving_variance_initializer": {"config": {}, "class_name": "Ones"}, "momentum": 0.99, "gamma_initializer": {"config": {}, "class_name": "Ones"}, "beta_initializer": {"config": {}, "class_name": "Zeros"}}, "class_name": "BatchNormalization", "inbound_nodes": [[["conv2d_69", 0, 0, {}]]]}, {"name": "batch_normalization_70", "config": {"beta_regularizer": null, "gamma_regularizer": null, "center": true, "scale": false, "gamma_constraint": null, "epsilon": 0.001, "axis": 3, "beta_constraint": null, "moving_mean_initializer": {"config": {}, "class_name": "Zeros"}, "name": "batch_normalization_70", "trainable": true, "moving_variance_initializer": {"config": {}, "class_name": "Ones"}, "momentum": 0.99, "gamma_initializer": {"config": {}, "class_name": "Ones"}, "beta_initializer": {"config": {}, "class_name": "Zeros"}}, "class_name": "BatchNormalization", "inbound_nodes": [[["conv2d_70", 0, 0, {}]]]}, {"name": "activation_61", "config": {"name": "activation_61", "activation": "relu", "trainable": true}, "class_name": "Activation", "inbound_nodes": [[["batch_normalization_61", 0, 0, {}]]]}, {"name": "activation_64", "config": {"name": "activation_64", "activation": "relu", "trainable": true}, "class_name": "Activation", "inbound_nodes": [[["batch_normalization_64", 0, 0, {}]]]}, {"name": "activation_69", "config": {"name": "activation_69", "activation": "relu", "trainable": true}, "class_name": "Activation", "inbound_nodes": [[["batch_normalization_69", 0, 0, {}]]]}, {"name": "activation_70", "config": {"name": "activation_70", "activation": "relu", "trainable": true}, "class_name": "Activation", "inbound_nodes": [[["batch_normalization_70", 0, 0, {}]]]}, {"name": "mixed7", "config": {"name": "mixed7", "trainable": true, "axis": 3}, "class_name": "Concatenate", "inbound_nodes": [[["activation_61", 0, 0, {}], ["activation_64", 0, 0, {}], ["activation_69", 0, 0, {}], ["activation_70", 0, 0, {}]]]}, {"name": "conv2d_73", "config": {"kernel_regularizer": null, "kernel_initializer": {"config": {"seed": null, "distribution": "uniform", "scale": 1.0, "mode": "fan_avg"}, "class_name": "VarianceScaling"}, "strides": [1, 1], "bias_regularizer": null, "filters": 192, "bias_initializer": {"config": {}, "class_name": "Zeros"}, "use_bias": false, "activation": "linear", "kernel_constraint": null, "name": "conv2d_73", "data_format": "channels_last", "trainable": true, "bias_constraint": null, "activity_regularizer": null, "padding": "same", "kernel_size": [1, 1], "dilation_rate": [1, 1]}, "class_name": "Conv2D", "inbound_nodes": [[["mixed7", 0, 0, {}]]]}, {"name": "batch_normalization_73", "config": {"beta_regularizer": null, "gamma_regularizer": null, "center": true, "scale": false, "gamma_constraint": null, "epsilon": 0.001, "axis": 3, "beta_constraint": null, "moving_mean_initializer": {"config": {}, "class_name": "Zeros"}, "name": "batch_normalization_73", "trainable": true, "moving_variance_initializer": {"config": {}, "class_name": "Ones"}, "momentum": 0.99, "gamma_initializer": {"config": {}, "class_name": "Ones"}, "beta_initializer": {"config": {}, "class_name": "Zeros"}}, "class_name": "BatchNormalization", "inbound_nodes": [[["conv2d_73", 0, 0, {}]]]}, {"name": "activation_73", "config": {"name": "activation_73", "activation": "relu", "trainable": true}, "class_name": "Activation", "inbound_nodes": [[["batch_normalization_73", 0, 0, {}]]]}, {"name": "conv2d_74", "config": {"kernel_regularizer": null, "kernel_initializer": {"config": {"seed": null, "distribution": "uniform", "scale": 1.0, "mode": "fan_avg"}, "class_name": "VarianceScaling"}, "strides": [1, 1], "bias_regularizer": null, "filters": 192, "bias_initializer": {"config": {}, "class_name": "Zeros"}, "use_bias": false, "activation": "linear", "kernel_constraint": null, "name": "conv2d_74", "data_format": "channels_last", "trainable": true, "bias_constraint": null, "activity_regularizer": null, "padding": "same", "kernel_size": [1, 7], "dilation_rate": [1, 1]}, "class_name": "Conv2D", "inbound_nodes": [[["activation_73", 0, 0, {}]]]}, {"name": "batch_normalization_74", "config": {"beta_regularizer": null, "gamma_regularizer": null, "center": true, "scale": false, "gamma_constraint": null, "epsilon": 0.001, "axis": 3, "beta_constraint": null, "moving_mean_initializer": {"config": {}, "class_name": "Zeros"}, "name": "batch_normalization_74", "trainable": true, "moving_variance_initializer": {"config": {}, "class_name": "Ones"}, "momentum": 0.99, "gamma_initializer": {"config": {}, "class_name": "Ones"}, "beta_initializer": {"config": {}, "class_name": "Zeros"}}, "class_name": "BatchNormalization", "inbound_nodes": [[["conv2d_74", 0, 0, {}]]]}, {"name": "activation_74", "config": {"name": "activation_74", "activation": "relu", "trainable": true}, "class_name": "Activation", "inbound_nodes": [[["batch_normalization_74", 0, 0, {}]]]}, {"name": "conv2d_71", "config": {"kernel_regularizer": null, "kernel_initializer": {"config": {"seed": null, "distribution": "uniform", "scale": 1.0, "mode": "fan_avg"}, "class_name": "VarianceScaling"}, "strides": [1, 1], "bias_regularizer": null, "filters": 192, "bias_initializer": {"config": {}, "class_name": "Zeros"}, "use_bias": false, "activation": "linear", "kernel_constraint": null, "name": "conv2d_71", "data_format": "channels_last", "trainable": true, "bias_constraint": null, "activity_regularizer": null, "padding": "same", "kernel_size": [1, 1], "dilation_rate": [1, 1]}, "class_name": "Conv2D", "inbound_nodes": [[["mixed7", 0, 0, {}]]]}, {"name": "conv2d_75", "config": {"kernel_regularizer": null, "kernel_initializer": {"config": {"seed": null, "distribution": "uniform", "scale": 1.0, "mode": "fan_avg"}, "class_name": "VarianceScaling"}, "strides": [1, 1], "bias_regularizer": null, "filters": 192, "bias_initializer": {"config": {}, "class_name": "Zeros"}, "use_bias": false, "activation": "linear", "kernel_constraint": null, "name": "conv2d_75", "data_format": "channels_last", "trainable": true, "bias_constraint": null, "activity_regularizer": null, "padding": "same", "kernel_size": [7, 1], "dilation_rate": [1, 1]}, "class_name": "Conv2D", "inbound_nodes": [[["activation_74", 0, 0, {}]]]}, {"name": "batch_normalization_71", "config": {"beta_regularizer": null, "gamma_regularizer": null, "center": true, "scale": false, "gamma_constraint": null, "epsilon": 0.001, "axis": 3, "beta_constraint": null, "moving_mean_initializer": {"config": {}, "class_name": "Zeros"}, "name": "batch_normalization_71", "trainable": true, "moving_variance_initializer": {"config": {}, "class_name": "Ones"}, "momentum": 0.99, "gamma_initializer": {"config": {}, "class_name": "Ones"}, "beta_initializer": {"config": {}, "class_name": "Zeros"}}, "class_name": "BatchNormalization", "inbound_nodes": [[["conv2d_71", 0, 0, {}]]]}, {"name": "batch_normalization_75", "config": {"beta_regularizer": null, "gamma_regularizer": null, "center": true, "scale": false, "gamma_constraint": null, "epsilon": 0.001, "axis": 3, "beta_constraint": null, "moving_mean_initializer": {"config": {}, "class_name": "Zeros"}, "name": "batch_normalization_75", "trainable": true, "moving_variance_initializer": {"config": {}, "class_name": "Ones"}, "momentum": 0.99, "gamma_initializer": {"config": {}, "class_name": "Ones"}, "beta_initializer": {"config": {}, "class_name": "Zeros"}}, "class_name": "BatchNormalization", "inbound_nodes": [[["conv2d_75", 0, 0, {}]]]}, {"name": "activation_71", "config": {"name": "activation_71", "activation": "relu", "trainable": true}, "class_name": "Activation", "inbound_nodes": [[["batch_normalization_71", 0, 0, {}]]]}, {"name": "activation_75", "config": {"name": "activation_75", "activation": "relu", "trainable": true}, "class_name": "Activation", "inbound_nodes": [[["batch_normalization_75", 0, 0, {}]]]}, {"name": "conv2d_72", "config": {"kernel_regularizer": null, "kernel_initializer": {"config": {"seed": null, "distribution": "uniform", "scale": 1.0, "mode": "fan_avg"}, "class_name": "VarianceScaling"}, "strides": [2, 2], "bias_regularizer": null, "filters": 320, "bias_initializer": {"config": {}, "class_name": "Zeros"}, "use_bias": false, "activation": "linear", "kernel_constraint": null, "name": "conv2d_72", "data_format": "channels_last", "trainable": true, "bias_constraint": null, "activity_regularizer": null, "padding": "valid", "kernel_size": [3, 3], "dilation_rate": [1, 1]}, "class_name": "Conv2D", "inbound_nodes": [[["activation_71", 0, 0, {}]]]}, {"name": "conv2d_76", "config": {"kernel_regularizer": null, "kernel_initializer": {"config": {"seed": null, "distribution": "uniform", "scale": 1.0, "mode": "fan_avg"}, "class_name": "VarianceScaling"}, "strides": [2, 2], "bias_regularizer": null, "filters": 192, "bias_initializer": {"config": {}, "class_name": "Zeros"}, "use_bias": false, "activation": "linear", "kernel_constraint": null, "name": "conv2d_76", "data_format": "channels_last", "trainable": true, "bias_constraint": null, "activity_regularizer": null, "padding": "valid", "kernel_size": [3, 3], "dilation_rate": [1, 1]}, "class_name": "Conv2D", "inbound_nodes": [[["activation_75", 0, 0, {}]]]}, {"name": "batch_normalization_72", "config": {"beta_regularizer": null, "gamma_regularizer": null, "center": true, "scale": false, "gamma_constraint": null, "epsilon": 0.001, "axis": 3, "beta_constraint": null, "moving_mean_initializer": {"config": {}, "class_name": "Zeros"}, "name": "batch_normalization_72", "trainable": true, "moving_variance_initializer": {"config": {}, "class_name": "Ones"}, "momentum": 0.99, "gamma_initializer": {"config": {}, "class_name": "Ones"}, "beta_initializer": {"config": {}, "class_name": "Zeros"}}, "class_name": "BatchNormalization", "inbound_nodes": [[["conv2d_72", 0, 0, {}]]]}, {"name": "batch_normalization_76", "config": {"beta_regularizer": null, "gamma_regularizer": null, "center": true, "scale": false, "gamma_constraint": null, "epsilon": 0.001, "axis": 3, "beta_constraint": null, "moving_mean_initializer": {"config": {}, "class_name": "Zeros"}, "name": "batch_normalization_76", "trainable": true, "moving_variance_initializer": {"config": {}, "class_name": "Ones"}, "momentum": 0.99, "gamma_initializer": {"config": {}, "class_name": "Ones"}, "beta_initializer": {"config": {}, "class_name": "Zeros"}}, "class_name": "BatchNormalization", "inbound_nodes": [[["conv2d_76", 0, 0, {}]]]}, {"name": "activation_72", "config": {"name": "activation_72", "activation": "relu", "trainable": true}, "class_name": "Activation", "inbound_nodes": [[["batch_normalization_72", 0, 0, {}]]]}, {"name": "activation_76", "config": {"name": "activation_76", "activation": "relu", "trainable": true}, "class_name": "Activation", "inbound_nodes": [[["batch_normalization_76", 0, 0, {}]]]}, {"name": "max_pooling2d_4", "config": {"name": "max_pooling2d_4", "data_format": "channels_last", "strides": [2, 2], "trainable": true, "pool_size": [3, 3], "padding": "valid"}, "class_name": "MaxPooling2D", "inbound_nodes": [[["mixed7", 0, 0, {}]]]}, {"name": "mixed8", "config": {"name": "mixed8", "trainable": true, "axis": 3}, "class_name": "Concatenate", "inbound_nodes": [[["activation_72", 0, 0, {}], ["activation_76", 0, 0, {}], ["max_pooling2d_4", 0, 0, {}]]]}, {"name": "conv2d_81", "config": {"kernel_regularizer": null, "kernel_initializer": {"config": {"seed": null, "distribution": "uniform", "scale": 1.0, "mode": "fan_avg"}, "class_name": "VarianceScaling"}, "strides": [1, 1], "bias_regularizer": null, "filters": 448, "bias_initializer": {"config": {}, "class_name": "Zeros"}, "use_bias": false, "activation": "linear", "kernel_constraint": null, "name": "conv2d_81", "data_format": "channels_last", "trainable": true, "bias_constraint": null, "activity_regularizer": null, "padding": "same", "kernel_size": [1, 1], "dilation_rate": [1, 1]}, "class_name": "Conv2D", "inbound_nodes": [[["mixed8", 0, 0, {}]]]}, {"name": "batch_normalization_81", "config": {"beta_regularizer": null, "gamma_regularizer": null, "center": true, "scale": false, "gamma_constraint": null, "epsilon": 0.001, "axis": 3, "beta_constraint": null, "moving_mean_initializer": {"config": {}, "class_name": "Zeros"}, "name": "batch_normalization_81", "trainable": true, "moving_variance_initializer": {"config": {}, "class_name": "Ones"}, "momentum": 0.99, "gamma_initializer": {"config": {}, "class_name": "Ones"}, "beta_initializer": {"config": {}, "class_name": "Zeros"}}, "class_name": "BatchNormalization", "inbound_nodes": [[["conv2d_81", 0, 0, {}]]]}, {"name": "activation_81", "config": {"name": "activation_81", "activation": "relu", "trainable": true}, "class_name": "Activation", "inbound_nodes": [[["batch_normalization_81", 0, 0, {}]]]}, {"name": "conv2d_78", "config": {"kernel_regularizer": null, "kernel_initializer": {"config": {"seed": null, "distribution": "uniform", "scale": 1.0, "mode": "fan_avg"}, "class_name": "VarianceScaling"}, "strides": [1, 1], "bias_regularizer": null, "filters": 384, "bias_initializer": {"config": {}, "class_name": "Zeros"}, "use_bias": false, "activation": "linear", "kernel_constraint": null, "name": "conv2d_78", "data_format": "channels_last", "trainable": true, "bias_constraint": null, "activity_regularizer": null, "padding": "same", "kernel_size": [1, 1], "dilation_rate": [1, 1]}, "class_name": "Conv2D", "inbound_nodes": [[["mixed8", 0, 0, {}]]]}, {"name": "conv2d_82", "config": {"kernel_regularizer": null, "kernel_initializer": {"config": {"seed": null, "distribution": "uniform", "scale": 1.0, "mode": "fan_avg"}, "class_name": "VarianceScaling"}, "strides": [1, 1], "bias_regularizer": null, "filters": 384, "bias_initializer": {"config": {}, "class_name": "Zeros"}, "use_bias": false, "activation": "linear", "kernel_constraint": null, "name": "conv2d_82", "data_format": "channels_last", "trainable": true, "bias_constraint": null, "activity_regularizer": null, "padding": "same", "kernel_size": [3, 3], "dilation_rate": [1, 1]}, "class_name": "Conv2D", "inbound_nodes": [[["activation_81", 0, 0, {}]]]}, {"name": "batch_normalization_78", "config": {"beta_regularizer": null, "gamma_regularizer": null, "center": true, "scale": false, "gamma_constraint": null, "epsilon": 0.001, "axis": 3, "beta_constraint": null, "moving_mean_initializer": {"config": {}, "class_name": "Zeros"}, "name": "batch_normalization_78", "trainable": true, "moving_variance_initializer": {"config": {}, "class_name": "Ones"}, "momentum": 0.99, "gamma_initializer": {"config": {}, "class_name": "Ones"}, "beta_initializer": {"config": {}, "class_name": "Zeros"}}, "class_name": "BatchNormalization", "inbound_nodes": [[["conv2d_78", 0, 0, {}]]]}, {"name": "batch_normalization_82", "config": {"beta_regularizer": null, "gamma_regularizer": null, "center": true, "scale": false, "gamma_constraint": null, "epsilon": 0.001, "axis": 3, "beta_constraint": null, "moving_mean_initializer": {"config": {}, "class_name": "Zeros"}, "name": "batch_normalization_82", "trainable": true, "moving_variance_initializer": {"config": {}, "class_name": "Ones"}, "momentum": 0.99, "gamma_initializer": {"config": {}, "class_name": "Ones"}, "beta_initializer": {"config": {}, "class_name": "Zeros"}}, "class_name": "BatchNormalization", "inbound_nodes": [[["conv2d_82", 0, 0, {}]]]}, {"name": "activation_78", "config": {"name": "activation_78", "activation": "relu", "trainable": true}, "class_name": "Activation", "inbound_nodes": [[["batch_normalization_78", 0, 0, {}]]]}, {"name": "activation_82", "config": {"name": "activation_82", "activation": "relu", "trainable": true}, "class_name": "Activation", "inbound_nodes": [[["batch_normalization_82", 0, 0, {}]]]}, {"name": "conv2d_79", "config": {"kernel_regularizer": null, "kernel_initializer": {"config": {"seed": null, "distribution": "uniform", "scale": 1.0, "mode": "fan_avg"}, "class_name": "VarianceScaling"}, "strides": [1, 1], "bias_regularizer": null, "filters": 384, "bias_initializer": {"config": {}, "class_name": "Zeros"}, "use_bias": false, "activation": "linear", "kernel_constraint": null, "name": "conv2d_79", "data_format": "channels_last", "trainable": true, "bias_constraint": null, "activity_regularizer": null, "padding": "same", "kernel_size": [1, 3], "dilation_rate": [1, 1]}, "class_name": "Conv2D", "inbound_nodes": [[["activation_78", 0, 0, {}]]]}, {"name": "conv2d_80", "config": {"kernel_regularizer": null, "kernel_initializer": {"config": {"seed": null, "distribution": "uniform", "scale": 1.0, "mode": "fan_avg"}, "class_name": "VarianceScaling"}, "strides": [1, 1], "bias_regularizer": null, "filters": 384, "bias_initializer": {"config": {}, "class_name": "Zeros"}, "use_bias": false, "activation": "linear", "kernel_constraint": null, "name": "conv2d_80", "data_format": "channels_last", "trainable": true, "bias_constraint": null, "activity_regularizer": null, "padding": "same", "kernel_size": [3, 1], "dilation_rate": [1, 1]}, "class_name": "Conv2D", "inbound_nodes": [[["activation_78", 0, 0, {}]]]}, {"name": "conv2d_83", "config": {"kernel_regularizer": null, "kernel_initializer": {"config": {"seed": null, "distribution": "uniform", "scale": 1.0, "mode": "fan_avg"}, "class_name": "VarianceScaling"}, "strides": [1, 1], "bias_regularizer": null, "filters": 384, "bias_initializer": {"config": {}, "class_name": "Zeros"}, "use_bias": false, "activation": "linear", "kernel_constraint": null, "name": "conv2d_83", "data_format": "channels_last", "trainable": true, "bias_constraint": null, "activity_regularizer": null, "padding": "same", "kernel_size": [1, 3], "dilation_rate": [1, 1]}, "class_name": "Conv2D", "inbound_nodes": [[["activation_82", 0, 0, {}]]]}, {"name": "conv2d_84", "config": {"kernel_regularizer": null, "kernel_initializer": {"config": {"seed": null, "distribution": "uniform", "scale": 1.0, "mode": "fan_avg"}, "class_name": "VarianceScaling"}, "strides": [1, 1], "bias_regularizer": null, "filters": 384, "bias_initializer": {"config": {}, "class_name": "Zeros"}, "use_bias": false, "activation": "linear", "kernel_constraint": null, "name": "conv2d_84", "data_format": "channels_last", "trainable": true, "bias_constraint": null, "activity_regularizer": null, "padding": "same", "kernel_size": [3, 1], "dilation_rate": [1, 1]}, "class_name": "Conv2D", "inbound_nodes": [[["activation_82", 0, 0, {}]]]}, {"name": "average_pooling2d_8", "config": {"name": "average_pooling2d_8", "data_format": "channels_last", "strides": [1, 1], "trainable": true, "pool_size": [3, 3], "padding": "same"}, "class_name": "AveragePooling2D", "inbound_nodes": [[["mixed8", 0, 0, {}]]]}, {"name": "conv2d_77", "config": {"kernel_regularizer": null, "kernel_initializer": {"config": {"seed": null, "distribution": "uniform", "scale": 1.0, "mode": "fan_avg"}, "class_name": "VarianceScaling"}, "strides": [1, 1], "bias_regularizer": null, "filters": 320, "bias_initializer": {"config": {}, "class_name": "Zeros"}, "use_bias": false, "activation": "linear", "kernel_constraint": null, "name": "conv2d_77", "data_format": "channels_last", "trainable": true, "bias_constraint": null, "activity_regularizer": null, "padding": "same", "kernel_size": [1, 1], "dilation_rate": [1, 1]}, "class_name": "Conv2D", "inbound_nodes": [[["mixed8", 0, 0, {}]]]}, {"name": "batch_normalization_79", "config": {"beta_regularizer": null, "gamma_regularizer": null, "center": true, "scale": false, "gamma_constraint": null, "epsilon": 0.001, "axis": 3, "beta_constraint": null, "moving_mean_initializer": {"config": {}, "class_name": "Zeros"}, "name": "batch_normalization_79", "trainable": true, "moving_variance_initializer": {"config": {}, "class_name": "Ones"}, "momentum": 0.99, "gamma_initializer": {"config": {}, "class_name": "Ones"}, "beta_initializer": {"config": {}, "class_name": "Zeros"}}, "class_name": "BatchNormalization", "inbound_nodes": [[["conv2d_79", 0, 0, {}]]]}, {"name": "batch_normalization_80", "config": {"beta_regularizer": null, "gamma_regularizer": null, "center": true, "scale": false, "gamma_constraint": null, "epsilon": 0.001, "axis": 3, "beta_constraint": null, "moving_mean_initializer": {"config": {}, "class_name": "Zeros"}, "name": "batch_normalization_80", "trainable": true, "moving_variance_initializer": {"config": {}, "class_name": "Ones"}, "momentum": 0.99, "gamma_initializer": {"config": {}, "class_name": "Ones"}, "beta_initializer": {"config": {}, "class_name": "Zeros"}}, "class_name": "BatchNormalization", "inbound_nodes": [[["conv2d_80", 0, 0, {}]]]}, {"name": "batch_normalization_83", "config": {"beta_regularizer": null, "gamma_regularizer": null, "center": true, "scale": false, "gamma_constraint": null, "epsilon": 0.001, "axis": 3, "beta_constraint": null, "moving_mean_initializer": {"config": {}, "class_name": "Zeros"}, "name": "batch_normalization_83", "trainable": true, "moving_variance_initializer": {"config": {}, "class_name": "Ones"}, "momentum": 0.99, "gamma_initializer": {"config": {}, "class_name": "Ones"}, "beta_initializer": {"config": {}, "class_name": "Zeros"}}, "class_name": "BatchNormalization", "inbound_nodes": [[["conv2d_83", 0, 0, {}]]]}, {"name": "batch_normalization_84", "config": {"beta_regularizer": null, "gamma_regularizer": null, "center": true, "scale": false, "gamma_constraint": null, "epsilon": 0.001, "axis": 3, "beta_constraint": null, "moving_mean_initializer": {"config": {}, "class_name": "Zeros"}, "name": "batch_normalization_84", "trainable": true, "moving_variance_initializer": {"config": {}, "class_name": "Ones"}, "momentum": 0.99, "gamma_initializer": {"config": {}, "class_name": "Ones"}, "beta_initializer": {"config": {}, "class_name": "Zeros"}}, "class_name": "BatchNormalization", "inbound_nodes": [[["conv2d_84", 0, 0, {}]]]}, {"name": "conv2d_85", "config": {"kernel_regularizer": null, "kernel_initializer": {"config": {"seed": null, "distribution": "uniform", "scale": 1.0, "mode": "fan_avg"}, "class_name": "VarianceScaling"}, "strides": [1, 1], "bias_regularizer": null, "filters": 192, "bias_initializer": {"config": {}, "class_name": "Zeros"}, "use_bias": false, "activation": "linear", "kernel_constraint": null, "name": "conv2d_85", "data_format": "channels_last", "trainable": true, "bias_constraint": null, "activity_regularizer": null, "padding": "same", "kernel_size": [1, 1], "dilation_rate": [1, 1]}, "class_name": "Conv2D", "inbound_nodes": [[["average_pooling2d_8", 0, 0, {}]]]}, {"name": "batch_normalization_77", "config": {"beta_regularizer": null, "gamma_regularizer": null, "center": true, "scale": false, "gamma_constraint": null, "epsilon": 0.001, "axis": 3, "beta_constraint": null, "moving_mean_initializer": {"config": {}, "class_name": "Zeros"}, "name": "batch_normalization_77", "trainable": true, "moving_variance_initializer": {"config": {}, "class_name": "Ones"}, "momentum": 0.99, "gamma_initializer": {"config": {}, "class_name": "Ones"}, "beta_initializer": {"config": {}, "class_name": "Zeros"}}, "class_name": "BatchNormalization", "inbound_nodes": [[["conv2d_77", 0, 0, {}]]]}, {"name": "activation_79", "config": {"name": "activation_79", "activation": "relu", "trainable": true}, "class_name": "Activation", "inbound_nodes": [[["batch_normalization_79", 0, 0, {}]]]}, {"name": "activation_80", "config": {"name": "activation_80", "activation": "relu", "trainable": true}, "class_name": "Activation", "inbound_nodes": [[["batch_normalization_80", 0, 0, {}]]]}, {"name": "activation_83", "config": {"name": "activation_83", "activation": "relu", "trainable": true}, "class_name": "Activation", "inbound_nodes": [[["batch_normalization_83", 0, 0, {}]]]}, {"name": "activation_84", "config": {"name": "activation_84", "activation": "relu", "trainable": true}, "class_name": "Activation", "inbound_nodes": [[["batch_normalization_84", 0, 0, {}]]]}, {"name": "batch_normalization_85", "config": {"beta_regularizer": null, "gamma_regularizer": null, "center": true, "scale": false, "gamma_constraint": null, "epsilon": 0.001, "axis": 3, "beta_constraint": null, "moving_mean_initializer": {"config": {}, "class_name": "Zeros"}, "name": "batch_normalization_85", "trainable": true, "moving_variance_initializer": {"config": {}, "class_name": "Ones"}, "momentum": 0.99, "gamma_initializer": {"config": {}, "class_name": "Ones"}, "beta_initializer": {"config": {}, "class_name": "Zeros"}}, "class_name": "BatchNormalization", "inbound_nodes": [[["conv2d_85", 0, 0, {}]]]}, {"name": "activation_77", "config": {"name": "activation_77", "activation": "relu", "trainable": true}, "class_name": "Activation", "inbound_nodes": [[["batch_normalization_77", 0, 0, {}]]]}, {"name": "mixed9_0", "config": {"name": "mixed9_0", "trainable": true, "axis": 3}, "class_name": "Concatenate", "inbound_nodes": [[["activation_79", 0, 0, {}], ["activation_80", 0, 0, {}]]]}, {"name": "concatenate_1", "config": {"name": "concatenate_1", "trainable": true, "axis": 3}, "class_name": "Concatenate", "inbound_nodes": [[["activation_83", 0, 0, {}], ["activation_84", 0, 0, {}]]]}, {"name": "activation_85", "config": {"name": "activation_85", "activation": "relu", "trainable": true}, "class_name": "Activation", "inbound_nodes": [[["batch_normalization_85", 0, 0, {}]]]}, {"name": "mixed9", "config": {"name": "mixed9", "trainable": true, "axis": 3}, "class_name": "Concatenate", "inbound_nodes": [[["activation_77", 0, 0, {}], ["mixed9_0", 0, 0, {}], ["concatenate_1", 0, 0, {}], ["activation_85", 0, 0, {}]]]}, {"name": "conv2d_90", "config": {"kernel_regularizer": null, "kernel_initializer": {"config": {"seed": null, "distribution": "uniform", "scale": 1.0, "mode": "fan_avg"}, "class_name": "VarianceScaling"}, "strides": [1, 1], "bias_regularizer": null, "filters": 448, "bias_initializer": {"config": {}, "class_name": "Zeros"}, "use_bias": false, "activation": "linear", "kernel_constraint": null, "name": "conv2d_90", "data_format": "channels_last", "trainable": true, "bias_constraint": null, "activity_regularizer": null, "padding": "same", "kernel_size": [1, 1], "dilation_rate": [1, 1]}, "class_name": "Conv2D", "inbound_nodes": [[["mixed9", 0, 0, {}]]]}, {"name": "batch_normalization_90", "config": {"beta_regularizer": null, "gamma_regularizer": null, "center": true, "scale": false, "gamma_constraint": null, "epsilon": 0.001, "axis": 3, "beta_constraint": null, "moving_mean_initializer": {"config": {}, "class_name": "Zeros"}, "name": "batch_normalization_90", "trainable": true, "moving_variance_initializer": {"config": {}, "class_name": "Ones"}, "momentum": 0.99, "gamma_initializer": {"config": {}, "class_name": "Ones"}, "beta_initializer": {"config": {}, "class_name": "Zeros"}}, "class_name": "BatchNormalization", "inbound_nodes": [[["conv2d_90", 0, 0, {}]]]}, {"name": "activation_90", "config": {"name": "activation_90", "activation": "relu", "trainable": true}, "class_name": "Activation", "inbound_nodes": [[["batch_normalization_90", 0, 0, {}]]]}, {"name": "conv2d_87", "config": {"kernel_regularizer": null, "kernel_initializer": {"config": {"seed": null, "distribution": "uniform", "scale": 1.0, "mode": "fan_avg"}, "class_name": "VarianceScaling"}, "strides": [1, 1], "bias_regularizer": null, "filters": 384, "bias_initializer": {"config": {}, "class_name": "Zeros"}, "use_bias": false, "activation": "linear", "kernel_constraint": null, "name": "conv2d_87", "data_format": "channels_last", "trainable": true, "bias_constraint": null, "activity_regularizer": null, "padding": "same", "kernel_size": [1, 1], "dilation_rate": [1, 1]}, "class_name": "Conv2D", "inbound_nodes": [[["mixed9", 0, 0, {}]]]}, {"name": "conv2d_91", "config": {"kernel_regularizer": null, "kernel_initializer": {"config": {"seed": null, "distribution": "uniform", "scale": 1.0, "mode": "fan_avg"}, "class_name": "VarianceScaling"}, "strides": [1, 1], "bias_regularizer": null, "filters": 384, "bias_initializer": {"config": {}, "class_name": "Zeros"}, "use_bias": false, "activation": "linear", "kernel_constraint": null, "name": "conv2d_91", "data_format": "channels_last", "trainable": true, "bias_constraint": null, "activity_regularizer": null, "padding": "same", "kernel_size": [3, 3], "dilation_rate": [1, 1]}, "class_name": "Conv2D", "inbound_nodes": [[["activation_90", 0, 0, {}]]]}, {"name": "batch_normalization_87", "config": {"beta_regularizer": null, "gamma_regularizer": null, "center": true, "scale": false, "gamma_constraint": null, "epsilon": 0.001, "axis": 3, "beta_constraint": null, "moving_mean_initializer": {"config": {}, "class_name": "Zeros"}, "name": "batch_normalization_87", "trainable": true, "moving_variance_initializer": {"config": {}, "class_name": "Ones"}, "momentum": 0.99, "gamma_initializer": {"config": {}, "class_name": "Ones"}, "beta_initializer": {"config": {}, "class_name": "Zeros"}}, "class_name": "BatchNormalization", "inbound_nodes": [[["conv2d_87", 0, 0, {}]]]}, {"name": "batch_normalization_91", "config": {"beta_regularizer": null, "gamma_regularizer": null, "center": true, "scale": false, "gamma_constraint": null, "epsilon": 0.001, "axis": 3, "beta_constraint": null, "moving_mean_initializer": {"config": {}, "class_name": "Zeros"}, "name": "batch_normalization_91", "trainable": true, "moving_variance_initializer": {"config": {}, "class_name": "Ones"}, "momentum": 0.99, "gamma_initializer": {"config": {}, "class_name": "Ones"}, "beta_initializer": {"config": {}, "class_name": "Zeros"}}, "class_name": "BatchNormalization", "inbound_nodes": [[["conv2d_91", 0, 0, {}]]]}, {"name": "activation_87", "config": {"name": "activation_87", "activation": "relu", "trainable": true}, "class_name": "Activation", "inbound_nodes": [[["batch_normalization_87", 0, 0, {}]]]}, {"name": "activation_91", "config": {"name": "activation_91", "activation": "relu", "trainable": true}, "class_name": "Activation", "inbound_nodes": [[["batch_normalization_91", 0, 0, {}]]]}, {"name": "conv2d_88", "config": {"kernel_regularizer": null, "kernel_initializer": {"config": {"seed": null, "distribution": "uniform", "scale": 1.0, "mode": "fan_avg"}, "class_name": "VarianceScaling"}, "strides": [1, 1], "bias_regularizer": null, "filters": 384, "bias_initializer": {"config": {}, "class_name": "Zeros"}, "use_bias": false, "activation": "linear", "kernel_constraint": null, "name": "conv2d_88", "data_format": "channels_last", "trainable": true, "bias_constraint": null, "activity_regularizer": null, "padding": "same", "kernel_size": [1, 3], "dilation_rate": [1, 1]}, "class_name": "Conv2D", "inbound_nodes": [[["activation_87", 0, 0, {}]]]}, {"name": "conv2d_89", "config": {"kernel_regularizer": null, "kernel_initializer": {"config": {"seed": null, "distribution": "uniform", "scale": 1.0, "mode": "fan_avg"}, "class_name": "VarianceScaling"}, "strides": [1, 1], "bias_regularizer": null, "filters": 384, "bias_initializer": {"config": {}, "class_name": "Zeros"}, "use_bias": false, "activation": "linear", "kernel_constraint": null, "name": "conv2d_89", "data_format": "channels_last", "trainable": true, "bias_constraint": null, "activity_regularizer": null, "padding": "same", "kernel_size": [3, 1], "dilation_rate": [1, 1]}, "class_name": "Conv2D", "inbound_nodes": [[["activation_87", 0, 0, {}]]]}, {"name": "conv2d_92", "config": {"kernel_regularizer": null, "kernel_initializer": {"config": {"seed": null, "distribution": "uniform", "scale": 1.0, "mode": "fan_avg"}, "class_name": "VarianceScaling"}, "strides": [1, 1], "bias_regularizer": null, "filters": 384, "bias_initializer": {"config": {}, "class_name": "Zeros"}, "use_bias": false, "activation": "linear", "kernel_constraint": null, "name": "conv2d_92", "data_format": "channels_last", "trainable": true, "bias_constraint": null, "activity_regularizer": null, "padding": "same", "kernel_size": [1, 3], "dilation_rate": [1, 1]}, "class_name": "Conv2D", "inbound_nodes": [[["activation_91", 0, 0, {}]]]}, {"name": "conv2d_93", "config": {"kernel_regularizer": null, "kernel_initializer": {"config": {"seed": null, "distribution": "uniform", "scale": 1.0, "mode": "fan_avg"}, "class_name": "VarianceScaling"}, "strides": [1, 1], "bias_regularizer": null, "filters": 384, "bias_initializer": {"config": {}, "class_name": "Zeros"}, "use_bias": false, "activation": "linear", "kernel_constraint": null, "name": "conv2d_93", "data_format": "channels_last", "trainable": true, "bias_constraint": null, "activity_regularizer": null, "padding": "same", "kernel_size": [3, 1], "dilation_rate": [1, 1]}, "class_name": "Conv2D", "inbound_nodes": [[["activation_91", 0, 0, {}]]]}, {"name": "average_pooling2d_9", "config": {"name": "average_pooling2d_9", "data_format": "channels_last", "strides": [1, 1], "trainable": true, "pool_size": [3, 3], "padding": "same"}, "class_name": "AveragePooling2D", "inbound_nodes": [[["mixed9", 0, 0, {}]]]}, {"name": "conv2d_86", "config": {"kernel_regularizer": null, "kernel_initializer": {"config": {"seed": null, "distribution": "uniform", "scale": 1.0, "mode": "fan_avg"}, "class_name": "VarianceScaling"}, "strides": [1, 1], "bias_regularizer": null, "filters": 320, "bias_initializer": {"config": {}, "class_name": "Zeros"}, "use_bias": false, "activation": "linear", "kernel_constraint": null, "name": "conv2d_86", "data_format": "channels_last", "trainable": true, "bias_constraint": null, "activity_regularizer": null, "padding": "same", "kernel_size": [1, 1], "dilation_rate": [1, 1]}, "class_name": "Conv2D", "inbound_nodes": [[["mixed9", 0, 0, {}]]]}, {"name": "batch_normalization_88", "config": {"beta_regularizer": null, "gamma_regularizer": null, "center": true, "scale": false, "gamma_constraint": null, "epsilon": 0.001, "axis": 3, "beta_constraint": null, "moving_mean_initializer": {"config": {}, "class_name": "Zeros"}, "name": "batch_normalization_88", "trainable": true, "moving_variance_initializer": {"config": {}, "class_name": "Ones"}, "momentum": 0.99, "gamma_initializer": {"config": {}, "class_name": "Ones"}, "beta_initializer": {"config": {}, "class_name": "Zeros"}}, "class_name": "BatchNormalization", "inbound_nodes": [[["conv2d_88", 0, 0, {}]]]}, {"name": "batch_normalization_89", "config": {"beta_regularizer": null, "gamma_regularizer": null, "center": true, "scale": false, "gamma_constraint": null, "epsilon": 0.001, "axis": 3, "beta_constraint": null, "moving_mean_initializer": {"config": {}, "class_name": "Zeros"}, "name": "batch_normalization_89", "trainable": true, "moving_variance_initializer": {"config": {}, "class_name": "Ones"}, "momentum": 0.99, "gamma_initializer": {"config": {}, "class_name": "Ones"}, "beta_initializer": {"config": {}, "class_name": "Zeros"}}, "class_name": "BatchNormalization", "inbound_nodes": [[["conv2d_89", 0, 0, {}]]]}, {"name": "batch_normalization_92", "config": {"beta_regularizer": null, "gamma_regularizer": null, "center": true, "scale": false, "gamma_constraint": null, "epsilon": 0.001, "axis": 3, "beta_constraint": null, "moving_mean_initializer": {"config": {}, "class_name": "Zeros"}, "name": "batch_normalization_92", "trainable": true, "moving_variance_initializer": {"config": {}, "class_name": "Ones"}, "momentum": 0.99, "gamma_initializer": {"config": {}, "class_name": "Ones"}, "beta_initializer": {"config": {}, "class_name": "Zeros"}}, "class_name": "BatchNormalization", "inbound_nodes": [[["conv2d_92", 0, 0, {}]]]}, {"name": "batch_normalization_93", "config": {"beta_regularizer": null, "gamma_regularizer": null, "center": true, "scale": false, "gamma_constraint": null, "epsilon": 0.001, "axis": 3, "beta_constraint": null, "moving_mean_initializer": {"config": {}, "class_name": "Zeros"}, "name": "batch_normalization_93", "trainable": true, "moving_variance_initializer": {"config": {}, "class_name": "Ones"}, "momentum": 0.99, "gamma_initializer": {"config": {}, "class_name": "Ones"}, "beta_initializer": {"config": {}, "class_name": "Zeros"}}, "class_name": "BatchNormalization", "inbound_nodes": [[["conv2d_93", 0, 0, {}]]]}, {"name": "conv2d_94", "config": {"kernel_regularizer": null, "kernel_initializer": {"config": {"seed": null, "distribution": "uniform", "scale": 1.0, "mode": "fan_avg"}, "class_name": "VarianceScaling"}, "strides": [1, 1], "bias_regularizer": null, "filters": 192, "bias_initializer": {"config": {}, "class_name": "Zeros"}, "use_bias": false, "activation": "linear", "kernel_constraint": null, "name": "conv2d_94", "data_format": "channels_last", "trainable": true, "bias_constraint": null, "activity_regularizer": null, "padding": "same", "kernel_size": [1, 1], "dilation_rate": [1, 1]}, "class_name": "Conv2D", "inbound_nodes": [[["average_pooling2d_9", 0, 0, {}]]]}, {"name": "batch_normalization_86", "config": {"beta_regularizer": null, "gamma_regularizer": null, "center": true, "scale": false, "gamma_constraint": null, "epsilon": 0.001, "axis": 3, "beta_constraint": null, "moving_mean_initializer": {"config": {}, "class_name": "Zeros"}, "name": "batch_normalization_86", "trainable": true, "moving_variance_initializer": {"config": {}, "class_name": "Ones"}, "momentum": 0.99, "gamma_initializer": {"config": {}, "class_name": "Ones"}, "beta_initializer": {"config": {}, "class_name": "Zeros"}}, "class_name": "BatchNormalization", "inbound_nodes": [[["conv2d_86", 0, 0, {}]]]}, {"name": "activation_88", "config": {"name": "activation_88", "activation": "relu", "trainable": true}, "class_name": "Activation", "inbound_nodes": [[["batch_normalization_88", 0, 0, {}]]]}, {"name": "activation_89", "config": {"name": "activation_89", "activation": "relu", "trainable": true}, "class_name": "Activation", "inbound_nodes": [[["batch_normalization_89", 0, 0, {}]]]}, {"name": "activation_92", "config": {"name": "activation_92", "activation": "relu", "trainable": true}, "class_name": "Activation", "inbound_nodes": [[["batch_normalization_92", 0, 0, {}]]]}, {"name": "activation_93", "config": {"name": "activation_93", "activation": "relu", "trainable": true}, "class_name": "Activation", "inbound_nodes": [[["batch_normalization_93", 0, 0, {}]]]}, {"name": "batch_normalization_94", "config": {"beta_regularizer": null, "gamma_regularizer": null, "center": true, "scale": false, "gamma_constraint": null, "epsilon": 0.001, "axis": 3, "beta_constraint": null, "moving_mean_initializer": {"config": {}, "class_name": "Zeros"}, "name": "batch_normalization_94", "trainable": true, "moving_variance_initializer": {"config": {}, "class_name": "Ones"}, "momentum": 0.99, "gamma_initializer": {"config": {}, "class_name": "Ones"}, "beta_initializer": {"config": {}, "class_name": "Zeros"}}, "class_name": "BatchNormalization", "inbound_nodes": [[["conv2d_94", 0, 0, {}]]]}, {"name": "activation_86", "config": {"name": "activation_86", "activation": "relu", "trainable": true}, "class_name": "Activation", "inbound_nodes": [[["batch_normalization_86", 0, 0, {}]]]}, {"name": "mixed9_1", "config": {"name": "mixed9_1", "trainable": true, "axis": 3}, "class_name": "Concatenate", "inbound_nodes": [[["activation_88", 0, 0, {}], ["activation_89", 0, 0, {}]]]}, {"name": "concatenate_2", "config": {"name": "concatenate_2", "trainable": true, "axis": 3}, "class_name": "Concatenate", "inbound_nodes": [[["activation_92", 0, 0, {}], ["activation_93", 0, 0, {}]]]}, {"name": "activation_94", "config": {"name": "activation_94", "activation": "relu", "trainable": true}, "class_name": "Activation", "inbound_nodes": [[["batch_normalization_94", 0, 0, {}]]]}, {"name": "mixed10", "config": {"name": "mixed10", "trainable": true, "axis": 3}, "class_name": "Concatenate", "inbound_nodes": [[["activation_86", 0, 0, {}], ["mixed9_1", 0, 0, {}], ["concatenate_2", 0, 0, {}], ["activation_94", 0, 0, {}]]]}, {"name": "average_pooling2d_10", "config": {"name": "average_pooling2d_10", "data_format": "channels_last", "strides": [8, 8], "trainable": true, "pool_size": [8, 8], "padding": "valid"}, "class_name": "AveragePooling2D", "inbound_nodes": [[["mixed10", 0, 0, {}]]]}, {"name": "flatten_1", "config": {"name": "flatten_1", "trainable": true}, "class_name": "Flatten", "inbound_nodes": [[["average_pooling2d_10", 0, 0, {}]]]}, {"name": "dense_1", "config": {"kernel_regularizer": {"config": {"l1": 0.0, "l2": 0.0005000000237487257}, "class_name": "L1L2"}, "name": "dense_1", "kernel_initializer": {"config": {"seed": null, "distribution": "normal", "scale": 2.0, "mode": "fan_in"}, "class_name": "VarianceScaling"}, "bias_regularizer": null, "bias_initializer": {"config": {}, "class_name": "Zeros"}, "use_bias": true, "kernel_constraint": null, "units": 256, "activation": "relu", "trainable": true, "bias_constraint": null, "activity_regularizer": null}, "class_name": "Dense", "inbound_nodes": [[["flatten_1", 0, 0, {}]]]}, {"name": "dropout_2", "config": {"name": "dropout_2", "trainable": true, "noise_shape": null, "rate": 0.5, "seed": null}, "class_name": "Dropout", "inbound_nodes": [[["dense_1", 0, 0, {}]]]}, {"name": "dense_2", "config": {"kernel_regularizer": null, "name": "dense_2", "kernel_initializer": {"config": {"seed": null, "distribution": "normal", "scale": 2.0, "mode": "fan_in"}, "class_name": "VarianceScaling"}, "bias_regularizer": null, "bias_initializer": {"config": {}, "class_name": "Zeros"}, "use_bias": true, "kernel_constraint": null, "units": 128, "activation": "relu", "trainable": true, "bias_constraint": null, "activity_regularizer": null}, "class_name": "Dense", "inbound_nodes": [[["dropout_2", 0, 0, {}]]]}, {"name": "dropout_3", "config": {"name": "dropout_3", "trainable": true, "noise_shape": null, "rate": 0.25, "seed": null}, "class_name": "Dropout", "inbound_nodes": [[["dense_2", 0, 0, {}]]]}, {"name": "dense_3", "config": {"kernel_regularizer": null, "name": "dense_3", "kernel_initializer": {"config": {"seed": null, "distribution": "uniform", "scale": 1.0, "mode": "fan_avg"}, "class_name": "VarianceScaling"}, "bias_regularizer": null, "bias_initializer": {"config": {}, "class_name": "Zeros"}, "use_bias": true, "kernel_constraint": null, "units": 5, "activation": "softmax", "trainable": true, "bias_constraint": null, "activity_regularizer": null}, "class_name": "Dense", "inbound_nodes": [[["dropout_3", 0, 0, {}]]]}], "input_layers": [["input_1", 0, 0]], "output_layers": [["dense_3", 0, 0]]}, "class_name": "Model"}